qwen_7b_patch_adapters/0000100_adapters.safetensors (safetensors, 721766 bytes, 8 tensors)

model.layers.26.self_attn.q_proj.lora_a f4 [3584, 8]
-0.00079619687 -0.016618416 -0.008753316 -0.0056083193 0.00041786075 0.014505833 0.01589165 0.0053803623
0.025998024 -0.021757342 -0.00075757876 -0.010715755 -0.010605485 0.004868736 -0.006086355 -0.0015432471
0.017519834 0.004293245 -0.00025077676 0.007294103 -0.013924224 0.029818568 0.0017861361 0.010398803
-0.0006135822 -0.009178193 -0.0031063783 0.012155861 -0.0058611017 0.018131418 -0.025080435 -0.022278685
-0.017184878 0.010216019 -0.0015652309 -0.017692523 -0.00046961117 0.0058385106 0.015749095 -0.017465768
0.013026358 0.008289416 -0.009743941 0.020008333 0.013701391 0.0017089514 -0.011439393 0.0028077005
-0.008438146 -0.019410541 0.0101503935 -0.022642437 -0.008362477 0.011032378 0.0043766405 -0.0037031372
-0.0011515062 0.008836154 0.017778195 0.01179217 0.009168235 -0.010352638 -0.015049267 0.015689239
0.0037268787 -0.02255169 -0.012987711 -0.020438049 -0.0047283676 0.0035788873 0.008491664 -0.0060843118
0.013834923 0.0092198765 -0.0014718339 0.020841938 0.01936895 -0.02406264 0.00059113133 -0.0024658195
-0.0029848015 0.005802731 0.016495598 0.005752183 0.018588288 -0.005402078 -0.015938522 -0.005397129
-0.005314035 0.0061267056 0.0039236518 -0.01525502 0.0042290012 0.01841053 -0.017266475 -0.004559301
-0.008347278 -0.015921915 -0.01882875 -0.0006026423 -0.017999051 -0.001206722 0.022092823 0.015542333
-0.012620759 0.020956913 0.0038303235 -0.0010347537 -0.0013266224 -0.0099363355 -0.016027883 -0.0038386472
0.0067706234 -0.0153290555 0.0050023138 0.010422684 -0.0021958023 0.011761244 0.0007003028 0.009936405
-0.023722727 -0.0031157588 -0.01400844 -0.0123500815 -0.0046320264 -0.004355644 0.015459402 0.0102257235
0.0013291126 -0.014485501 0.008672009 0.005515081 -0.00541817 0.00755375 0.024658894 -0.013089648
0.02129918 0.022324892 -0.0076689185 -0.005600496 0.0017047401 0.0098304255 0.009447572 -0.009024981
0.019759063 0.0124580525 0.0038801427 -0.009409437 -0.019031566 -0.0044520623 -0.009563193 0.018279046
-0.013989666 -0.018801292 -0.024720296 0.002199204 -0.01559823 0.01706907 -0.0035338937 0.023674954
0.013077493 0.008693145 0.0067292247 0.012270857 0.012344663 0.0068082344 -0.004182824 -0.010814587
0.0009680068 0.0009837059 0.013033638 -0.010029161 -0.013013326 0.0008356766 -0.00024028007 0.005812442
0.00089630607 0.0062487847 0.009876871 0.011900273 0.010694921 0.00025206123 0.015113668 -0.008184837
0.026609981 -0.016556017 -0.015320241 -0.012217467 -0.02553265 -0.0011386764 0.025604442 0.03049569
-0.023409666 -0.008126557 0.00671744 -0.02746238 -0.000665804 0.016122518 0.009284955 0.014348844
0.025458127 -0.013066092 0.0042646406 -0.0077358214 0.0022757053 -0.0030089153 -0.009067164 -0.013363035
0.024744682 0.0033064235 0.021892896 0.028273618 -0.008516656 -0.03156911 0.0012930928 0.008061471
0.025247078 0.014968388 0.016379302 0.015064063 0.0064475588 -0.010325524 0.0034689459 0.0053724824
0.019130575 0.011871694 -0.011114559 -0.010218603 -0.006070295 -0.0045059016 0.005915597 0.0026642953
-0.0008697874 0.01549353 0.012977574 0.0023636357 0.005504313 0.00021158048 0.018203046 -0.007221885
-0.00942469 0.003990605 0.006197811 -0.001470469 -0.016587485 0.014782195 -0.010212974 -0.010737041
0.02750303 -0.017929383 0.009625197 0.013518011 -0.0042575616 -0.028107991 0.009340253 -0.011363433
00000000: deb7 50ba 5823 88bc 116a 0fbc fec5 b7bb
00000010: 5214 db39 e0a9 6d3c 352f 823c c04d b03b
00000020: cff9 d43c 743c b2bc 4098 46ba 2291 2fbc
00000030: a1c2 2dbc eb89 9f3b 0c70 c7bb c846 caba
00000040: c185 8f3c 59ae 8c3b b07a 83b9 5f03 ef3b
00000050: 6e22 64bc 1246 f43c c81c ea3a be5f 2a3c
00000060: ced8 20ba 2260 16bc 6194 4bbb 6029 473c
00000070: 7c0e c0bb 5788 943c 7c75 cdbc ca81 b6bc
00000080: 4dc7 8cbc 1761 273c 6f28 cdba e9ef 90bc
00000090: 2536 f6b9 fa50 bf3b 3f04 813c 5f14 8fbc
000000a0: 816c 553c 55d0 073c 0da5 1fbc 84e8 a33c
000000b0: cd7b 603c e5fe df3a 4b6c 3bbc 6601 383b
000000c0: 2640 0abc db02 9fbc d64d 263c a27c b9bc
000000d0: c502 09bc 26c1 343c ec69 8f3b 55b0 72bb
000000e0: 23ee 96ba 84c5 103c 94a3 913c f233 413c
000000f0: 5d36 163c 1c9e 29bc 3391 76bc b886 803c
00000100: a63e 743b 52be b8bc 68ca 54bc b26d a7bc
00000110: 6cf0 9abb c48b 6a3b 9f20 0b3c e85e c7bb
00000120: dfab 623c f70e 173c 8dea c0ba b6bc aa3c
00000130: a2ab 9e3c 031f c5bc 27f6 1a3a 9699 21bb
00000140: a99c 43bb d624 be3b c721 873c cf7c bc3b
00000150: 7746 983c ea03 b1bb 8191 82bc 66da b0bb
00000160: 5b21 aebb 88c2 c83b fa91 803b 31f0 79bc
00000170: 6f93 8a3b aed1 963c 6c72 8dbc 3066 95bb
00000180: 06c3 08bc ad6e 82bc c03e 9abc a4fa 1dba
00000190: bf72 93bc df2a 9eba 02fc b43c 45a5 7e3c
000001a0: 4dc7 4ebc d5ad ab3c 2a06 7b3b 93a0 87ba
000001b0: 10e2 adba 03cc 22bc e84c 83bc d091 7bbb
000001c0: 1bdc dd3b b826 7bbc 73ea a33b e8c3 2a3c
000001d0: 73e7 0fbb 3cb2 403c 8694 373a 4ecc 223c
000001e0: 2a56 c2bc c231 4cbb a883 65bc ff57 4abc
000001f0: 41c8 97bb cab9 8ebb 6f49 7d3c cb89 273c
00000200: 9e35 ae3a 9854 6dbc 0b15 0e3c dab7 b43b
00000210: e78a b1bb 7385 f73b 7301 ca3c f775 56bc
00000220: 9e7b ae3c b1e2 b63c 8d4b fbbb 5e84 b7bb
00000230: 9671 df3a cb0f 213c fdc9 1a3c 84dd 13bc
00000240: c2dd a13c dc1c 4c3c fe49 7e3b 0a2a 1abc
00000250: 16e8 9bbc 9be2 91bb f0ae 1cbc f0bd 953c
00000260: e934 65bc 2b05 9abc 3882 cabc 8520 103b
00000270: b88f 7fbc 6fd4 8b3c e698 67bb faf1 c13c
00000280: fb42 563c b16d 0e3c d480 dc3b b40b 493c
00000290: 4541 4a3c 9c17 df3b 1210 89bb aa2f 31bc
000002a0: d6c1 7d3a b1ef 803a 0a8b 553c 5a51 24bc
000002b0: d835 55bc 4f11 5b3a b1f3 7bb9 4c76 be3b
000002c0: 15f6 6a3a 9bc2 cc3b 99d2 213c 5df9 423c
000002d0: c039 2f3c 1627 8439 519f 773c b219 06bc
000002e0: 2dfd d93c 7ca0 87bc c001 7bbc c52b 48bc
000002f0: d929 d1bc a43f 95ba 68c0 d13c 19d2 f93c
00000300: a1c5 bfbc 4025 05bc f91d dc3b c9f8 e0bc
00000310: 5a89 2eba 5f13 843c ed1f 183c 6a17 6b3c
00000320: 908d d03c 2913 56bc 66be 8b3b c67c fdbb
00000330: 0024 153b 3931 45bb 718e 14bc a2f0 5abc
00000340: 5cb5 ca3c 95b0 583b bb58 b33c 139e e73c
00000350: 7289 0bbc 9c4e 01bd ff7c a93a 4314 043c
00000360: f6d2 ce3c f83d 753c e32d 863c 42cf 763c
00000370: 0b46 d33b 632c 29bc 4157 633b a60b b03b
00000380: b9b7 9c3c 7e81 423c d719 36bc ed6b 27bc
00000390: 53e9 c6bb 3ea6 93bb a0d7 c13b 759b 2e3b
000003a0: 7202 64ba 93d8 7d3c e49f 543c 3ae7 1a3b
000003b0: 865d b43b b4db 5d39 8e1e 953c 90a5 ecbb
000003c0: 046a 1abc 9fc3 823b 0217 cb3b c1bc c0ba
000003d0: 7ae2 87bc 0531 723c 5154 27bc 6aea 2fbc
000003e0: 094e e13c a4e0 92bc 01b3 1d3c a67a 5d3c
000003f0: 0483 8bbb bb42 e6bc dc07 193c b12d 3abc

model.layers.26.self_attn.q_proj.lora_b f4 [8, 3584]
-0.00461142 0.0043753614 -0.0104298685 -0.013711964 0.007344375 -0.0033273292 -0.0021411402 0.0028032854
-0.003297403 0.003691326 -0.01490068 0.0021500192 0.0072104917 0.004684408 -0.011652438 0.013171307
-0.013094963 -0.013121044 0.00862583 0.009160473 0.008807082 0.012107143 -0.0016900122 -0.016101127
-0.010014896 0.00019916834 0.007610759 0.0134676285 0.0026889516 -0.014323612 0.006594597 0.003260776
0.0007105411 -0.0035124198 -0.0071464097 -0.011137707 -0.007545779 0.009696549 0.009794048 0.010552601
-0.007553425 0.003139767 0.007303003 -0.0004932164 -0.00802321 0.0036172399 -0.0003657392 0.009089804
-0.0030441806 0.005347061 0.00021568712 0.0030703433 -0.0024592457 0.0053880657 -0.012553471 -0.0076204306
0.006926385 -0.009852133 -0.004481318 -0.0010171745 -0.006403465 -0.0097221155 0.005555868 -0.005641594
-0.0039916285 -0.0045622634 0.005664649 0.0034808847 0.012053898 -0.007664723 -0.0065256413 0.012624078
-0.0038547514 0.017537449 0.011799129 0.010542352 -0.0006244938 0.009471101 -0.00010732245 0.011694655
-0.0012075097 -0.01486953 0.011892509 -0.0067605423 0.016210685 0.01196748 -0.00012761385 0.005365071
0.011357779 0.0013251498 0.0055591967 -0.0029007357 -0.0024649699 0.0077496385 0.0055813454 -0.00028942164
-0.009155762 -0.00051206595 -0.0030717202 -0.010818122 -0.004970011 0.0022002433 0.0046701445 -0.008009895
0.0052271024 0.0012867014 0.005936375 0.0058065983 0.0019938543 0.012034792 -0.005955667 -0.008461638
0.0049947435 0.008138876 -0.013064455 -0.0059016505 0.011213532 0.0074129147 -0.004490693 0.007308034
0.010298476 0.005934835 -0.009304521 0.0001639358 0.0062675793 -0.008345103 -0.006017006 0.00747189
-0.01194164 0.0016476997 -0.0059757163 -0.0026555061 0.015592044 -0.011509192 0.011249885 0.0029603064
-0.0039858953 0.015049783 -0.0036484215 0.0062596123 -0.0060115517 0.003075867 0.0137923295 0.0023803937
0.0123627735 -0.00071770465 0.012904196 0.009604001 0.010963039 -0.00043849522 0.007178185 -0.0027213946
-0.0020247486 0.0050691045 -0.0011782418 0.010223343 -0.0040675174 -0.0005728381 -0.0077418266 -0.0034208437
8.440102e-06 -0.00771012 0.005187302 -0.013362158 0.010078065 -0.013847403 -0.0076281414 -0.013704833
0.007298908 0.0021336253 -0.0005275936 0.009262596 0.0071886405 0.006682748 0.0025418245 -0.003882244
-0.0017545249 0.0065926393 0.0070977113 0.0017065149 -0.000260065 -0.010150238 0.007403266 0.0045716087
-0.01257512 -0.007198261 -0.007905985 0.00976914 -0.010521821 0.010042673 0.004871998 0.0014665591
-0.008385153 -0.00808369 0.013709122 0.004178558 0.01431352 0.013741659 -0.009700797 0.013517251
-0.00023706487 -0.0060618455 0.013430559 0.0045125023 -0.007439069 -0.012070106 0.0047077145 0.0071801865
-0.014454862 -0.010342167 -0.0046775327 0.0024638893 0.00027527436 -0.0024379815 0.0015146205 -0.0019107007
0.004288854 -0.007985516 0.006997946 0.0094704265 0.0016264896 -0.009369923 0.0130025325 0.011028571
-0.0036747511 0.009993354 -0.0034885975 -0.008452097 -0.012163101 0.013654688 0.005953409 0.0061901114
-0.009824201 0.00073113467 -0.0144499075 -0.0077055655 0.006719269 -0.005194303 -0.008291473 0.0006334029
-0.0113959 -0.007503688 0.00042744837 0.006815287 0.0026832456 -0.0077734697 -0.00043779815 -0.0020424032
-0.0057100304 0.010673081 0.012983734 -0.0006289391 0.009045994 -0.0054100337 -0.001410204 -0.0025944966
00000000: 651b 97bb 315f 8f3b 0ae2 2abc 25a8 60bc
00000010: 15a9 f03b 520f 5abb 5f52 0cbb 53b7 373b
00000020: 3e19 58bb 2cea 713b fb21 74bc 56e7 0c3b
00000030: fd45 ec3b aa7f 993b dee9 3ebc 77cc 573c
00000040: 418c 56bc a6f9 56bc 5a53 0d3c cf15 163c
00000050: 944b 103c 0a5d 463c 6683 ddba 83e6 83bc
00000060: 8515 24bc d8d7 5039 ad63 f93b 54a7 5c3c
00000070: 1f39 303b 95ad 6abc 7d17 d83b beb2 553b
00000080: 9b43 3a3a a030 66bb 6e2c eabb ee7a 36bc
00000090: 9542 f7bb 46de 1e3c 3777 203c d1e4 2c3c
000000a0: b982 f7bb 8dc4 4d3b 084e ef3b 314b 01ba
000000b0: c873 03bc 370f 6d3b afc0 bfb9 67ed 143c
000000c0: e080 47bb 6636 af3b 122a 6239 d037 493b
000000d0: 4c2b 21bb 5f8e b03b 13ad 4dbc ceb4 f9bb
000000e0: bbf6 e23b d76a 21bc 05d8 92bb b652 85ba
000000f0: 28d4 d1bb 8249 1fbc 000e b63b 1fdd b8bb
00000100: 35cc 82bb 0a7f 95bb 859e b93b 8e1f 643b
00000110: b67d 453c 5b28 fbbb 0cd5 d5bb 39d5 4e3c
00000120: ff9f 7cbb b2aa 8f3c 2251 413c d4b9 2c3c
00000130: 12b5 23ba ad2c 1b3c 4d12 e1b8 f09a 3f3c
00000140: 4d45 9eba 549f 73bc ccd8 423c 8a87 ddbb
00000150: 45cc 843c 4013 443c 15d0 05b9 7acd af3b
00000160: fa15 3a3c a6b0 ad3a ec29 b63b 451a 3ebb
00000170: 558b 21bb aef0 fd3b b8e3 b63b 84bd 97b9
00000180: 0d02 16bc 2a3c 06ba ea4e 49bb 7e3e 31bc
00000190: 79db a2bb f531 103b 0308 993b ef3b 03bc
000001a0: 1d48 ab3b 89a6 a83a ec85 c23b 4745 be3b
000001b0: 53ab 023b 942d 453c c127 c3bb afa2 0abc
000001c0: f2aa a33b ec58 053c 4c0c 56bc a262 c1bb
000001d0: f6b8 373c 09e8 f23b aa26 93bb 3c78 ef3b
000001e0: f0ba 283c 0179 c23b fd71 18bc 2ee6 2b39
000001f0: 4460 cd3b e6b9 08bc 4e2a c5bb c2d6 f43b
00000200: dea6 43bc a1f7 d73a f1cf c3bb 0008 2ebb
00000210: c675 7f3c 0d91 3cbc 7051 383c b301 423b
00000220: 1d9c 82bb 5d93 763c 5b1a 6fbb 6f1d cd3b
00000230: 8dfc c4bb 7c94 493b 39f9 613c 6100 1c3b
00000240: 3b8d 4a3c 5824 3cba 1f6c 533c 1a5a 1d3c
00000250: 519e 333c d5e5 e5b9 fb36 eb3b 6d59 32bb
00000260: a5b1 04bb bb1a a63b 3c6f 9aba cf7f 273c
00000270: cf48 85bb 842a 16ba 26af fdbb 3c30 60bb
00000280: f699 0d37 2da5 fcbb 3efa a93b f4ec 5abc
00000290: 781e 253c 38e0 62bc 7df5 f9bb 3c8a 60bc
000002a0: ae2b ef3b 4bd4 0b3b 354e 0aba 25c2 173c
000002b0: b08e eb3b f4fa da3b bd94 263b 3f6d 7ebb
000002c0: 16f8 e5ba 1107 d83b eb93 e83b 23ad df3a
000002d0: 5559 88b9 2f4d 26bc 1997 f23b 6fcd 953b
000002e0: e007 4ebc 64df ebbb 1b88 01bc be0e 203c
000002f0: b763 2cbc 068a 243c 48a5 9f3b 8f39 c03a
00000300: e161 09bc 7471 04bc 3a9c 603c 49ec 883b
00000310: 4183 6a3c b224 613c 17f0 1ebc 7677 5d3c
00000320: 9e94 78b9 72a2 c6bb d90b 5c3c 9ddd 933b
00000330: 6fc3 f3bb b2c1 45bc 2c43 9a3b c547 eb3b
00000340: 16d4 6cbc 3172 29bc fd45 99bb 3479 213b
00000350: b352 9039 8bc6 1fbb 3b86 c63a 7a70 faba
00000360: 8489 8c3b afd5 02bc 074f e53b d929 1b3c
00000370: ef2f d53a 4e84 19bc 9308 553c 2eb1 343c
00000380: 18d4 70bb 2abb 233c f4a0 64bb aa7a 0abc
00000390: be47 47bc eab7 5f3c d014 c33b 6bd6 ca3b
000003a0: b0f5 20bc 9ea9 3f3a 4ebf 6cbc f87e fcbb
000003b0: 502d dc3b f934 aabb f5d8 07bc f30a 263a
000003c0: deb5 3abc 7fe1 f5bb 261b e039 c552 df3b
000003d0: 64d9 2f3b 97b8 febb 4688 e5b9 d7d9 05bb
000003e0: 351b bbbb 25de 2e3c bab9 543c 63df 24ba
000003f0: a635 143c a746 b1bb 98d6 b8ba 6e08 2abb

model.layers.26.self_attn.v_proj.lora_a f4 [3584, 8]
0.0064337174 -0.012246926 0.009418549 -0.00360885 0.019259704 -0.0018717571 -0.013705499 0.017281597
-0.0167873 -0.0036431886 -0.003475078 -0.0043172687 -0.007158232 0.008722743 -0.02450496 0.0087541165
0.02119986 -0.00071066566 0.009390129 0.01012215 0.012148662 0.01221652 -0.015789924 -0.011178896
0.013224422 0.008854461 -0.006501223 -0.0125255445 0.0011088803 0.0093109105 0.0023555767 -0.0046301703
0.008528923 -0.004515131 0.024115624 -0.019730931 0.00853827 0.015764115 -0.020902501 0.0284455
-0.012711906 -0.02224787 -0.0021155458 -0.0036587801 0.0006649281 -0.011460376 0.00036899833 0.015092667
-0.025776757 -0.010427907 -0.007590644 0.017215297 -0.01937835 -0.026235808 -0.0030714632 8.547897e-06
0.017271956 0.010792848 -0.008173843 0.0087346 -0.012922751 0.009464739 -0.0040574223 -0.01038439
-0.0054340907 0.006843213 0.026836528 -0.019915655 -0.00056715304 0.017322073 -0.011443725 0.0018575436
-0.0028252306 0.015960962 0.0015035381 -0.020260563 -0.0027958658 0.02235009 -0.0031840326 -0.019708863
0.015142319 -0.011977019 0.010142509 -0.005413475 0.010372717 0.0015655814 -0.0078052175 -0.0038278264
0.0026245418 -0.0025426007 -0.018208766 0.0003804684 -0.009890612 -0.010327529 0.0174409 -0.015805483
0.0005972092 0.014996471 0.014982681 0.020114675 -0.017636301 -0.022950642 0.0014641571 0.035107438
0.004767113 -0.009536245 0.007743423 -0.011904668 0.00026120336 0.017593704 -0.002411942 -0.015341482
-0.009518068 -0.012548509 -0.012648436 -0.002764537 -0.00043799388 0.0115095535 -0.010563284 -0.026637917
-0.022195505 -0.015368434 0.012138746 -0.016926507 -0.007709087 -0.007702497 -0.010911899 0.0014458863
-0.00043291616 -0.007658563 -0.027680486 0.00458154 -0.0049648434 0.0038399782 -0.0017720204 -0.008293955
0.016677456 -0.011146342 0.0038068614 -0.011276701 0.0016136755 -0.0023379768 -0.014843145 -0.012927525
-0.015064308 -0.007281655 -0.017551739 -0.015507324 0.016584408 -0.021051753 0.014944223 -0.0060576107
-0.011812048 0.020675855 -0.025257343 0.023971604 -0.015760822 -0.024925899 -0.0030305437 -0.01080155
0.009623983 -0.019961588 0.0023141147 -0.01644914 0.012259809 0.02026659 -0.01729817 0.01355093
0.0021084645 0.0005464847 -0.010707157 0.005094154 -0.00012934877 -0.00776022 -0.0073061376 0.0048835333
0.017419536 0.0011979047 0.008068708 -0.02733988 0.02295774 0.014160188 -0.014464397 -0.004253838
0.007206845 0.027459258 -0.0023285975 0.0151765505 0.0050008083 0.0008903604 0.0074982936 -0.0058431095
0.010165342 0.025863577 -0.0064095887 0.02526054 -0.017181037 -0.014567676 0.011592383 -0.01020614
0.019764123 -0.009972507 0.004965074 -0.01620021 0.0053875963 0.0074637854 -0.011190683 0.010192811
0.018128285 -0.003754058 0.027643032 -0.024724523 0.00546479 0.006355534 -0.024064025 0.011416973
-0.0075665596 -0.01063239 0.028589223 -0.0015132424 -0.0008668489 0.017996954 0.0009728413 -0.0051978836
0.014938792 -0.008168462 -0.012086826 0.0016879681 -0.009809903 -0.019923354 0.022245824 -0.003203372
0.001774777 0.0071318904 -0.009244986 0.004063874 0.016670657 -0.015423142 0.02124064 -0.0092914095
0.005754562 -0.011405646 0.012213264 -0.01646098 0.010785829 0.017458223 -0.027892591 -0.0033824372
-0.016239602 -0.012255294 -0.0041237944 -0.009526289 0.029977877 0.003193016 0.011617895 -0.025749564
00000000: efd1 d23b 55a7 48bc 4250 1a3c 7582 6cbb
00000010: 87c6 9d3c bf55 f5ba 078d 60bc 2392 8d3c
00000020: 8585 89bc 90c2 6ebb 22be 63bb e077 8dbb
00000030: 9a8f eabb d6e9 0e3c a0be c8bc 6d6d 0f3c
00000040: 54ab ad3c f74b 3aba 0ed9 193c 60d7 253c
00000050: 2e0b 473c cc27 483c df59 81bc b027 37bc
00000060: 3fab 583c 4d12 113c 3608 d5bb f137 4dbc
00000070: d957 913a ca8c 183c 0560 1a3b afb8 97bb
00000080: e5bc 0b3c aaf3 93bb 218e c53c c3a2 a1bc
00000090: 1ae4 0b3c bf23 813c b93b abbc 8a06 e93c
000000a0: 9945 50bc 2a41 b6bc f8a4 0abb 25c8 6fbb
000000b0: 924e 2e3a 4dc4 3bbc 1e76 c139 3c47 773c
000000c0: c729 d3bc d0d9 2abc f0ba f8bb 1807 8d3c
000000d0: 58bf 9ebc 7aec d6bc 9a4a 49bb f068 0f37
000000e0: eb7d 8d3c 7cd4 303c 95eb 05bc 911b 0f3c
000000f0: f2b9 53bc fe11 1b3c 20f4 84bb 4a23 2abc
00000100: 7510 b2bb 083d e03b 47d8 db3c 2826 a3bc
00000110: ffac 14ba 05e7 8d3c 767e 3bbc d278 f33a
00000120: 8127 39bb 90c0 823c 5e12 c53a 7bf9 a5bc
00000130: d83a 37bb 8917 b73c 34ab 50bb 7b74 a1bc
00000140: 7d17 783c 423b 44bc c42c 263c 8563 b1bb
00000150: 54f2 293c 3234 cd3a e9c2 ffbb 45dc 7abb
00000160: 8100 2c3b c3a1 26bb 8d2a 95bc 9b79 c739
00000170: 3c0c 22bc cc34 29bc 38e0 8e3c 807a 81bc
00000180: 088e 1c3a c2b3 753c eb79 753c 88c7 a43c
00000190: 017a 90bc fc02 bcbc f6e8 bf3a d1cc 0f3d
000001a0: 7135 9c3b e93d 1cbc 8abc fd3b cc0b 43bc
000001b0: 1ff2 8839 ac20 903c ac11 1ebb d75a 7bbc
000001c0: acf1 1bbc 4398 4dbc 633b 4fbc 3c2d 35bb
000001d0: 8ba2 e5b9 9192 3c3c a011 2dbc c337 dabc
000001e0: 59d3 b5bc e2cb 7bbc 97e1 463c 75a9 8abc
000001f0: 829c fcbb 3a65 fcbb d2c7 32bc e583 bd3a
00000200: 06f9 e2b9 aff4 fabb 30c2 e2bc be20 963b
00000210: 20b0 a2bb 25a8 7b3b 2343 e8ba 5ee3 07bc
00000220: 299f 883c 269f 36bc 897c 793b eac1 38bc
00000230: f781 d33a be38 19bb aa30 73bc f8cd 53bc
00000240: 4ad0 76bc f39a eebb aac8 8fbc 6e12 7ebc
00000250: 06dc 873c ba74 acbc 9dd8 743c ec7e c6bb
00000260: 5287 41bc 6960 a93c 7de8 cebc 1960 c43c
00000270: d71c 81bc 6631 ccbc 169c 46bb fcf8 30bc
00000280: e9ad 1d3c 7c86 a3bc 67a8 173b 59c0 86bc
00000290: 5edd 483c 1f06 a63c e4b4 8dbc b804 5e3c
000002a0: 2a2e 0a3b f841 0f3a 126d 2fbc dcec a63b
000002b0: cca1 07b9 7249 febb 5368 efbb 0c06 a03b
000002c0: 6ab3 8e3c 0303 9d3a 9d32 043c e2f7 dfbc
000002d0: df11 bc3c 2200 683c 14fc 6cbc c863 8bbb
000002e0: 6627 ec3b 3df2 e03c 629b 18bb 11a7 783c
000002f0: d2dd a33b 1367 693a 3fb4 f53b 8e77 bfbb
00000300: 898c 263c dadf d33c 8707 d2bb 31ef ce3c
00000310: 3fbf 8cbc 43ad 6ebc faed 3d3c a737 27bc
00000320: 5fe8 a13c ba63 23bc 0fb2 a23b 4eb6 84bc
00000330: 6f8a b03b c592 f43b 2059 37bc bfff 263c
00000340: c581 943c a406 76bb a473 e23c 158b cabc
00000350: fb11 b33b 1542 d03b eb21 c5bc 410e 3b3c
00000360: e7f0 f7bb 7a33 2ebc f233 ea3c fd57 c6ba
00000370: 3f3d 63ba 596e 933c 4606 7f3a 0253 aabb
00000380: d6c1 743c 03d5 05bc d307 46bc d03e dd3a
00000390: b7b9 20bc 4d36 a3bc e03c b63c aaef 51bb
000003a0: a29f e83a a2b2 e93b 4878 17bc 3f2a 853b
000003b0: e790 883c 59b1 7cbc da00 ae3c ff3a 18bc
000003c0: c490 bc3b bfde 3abc 241a 483c 2dd9 86bc
000003d0: 0cb7 303c 8c04 8f3c 017f e4bc e1ab 5dbb
000003e0: ea08 85bc 6eca 48bc e520 87bb 2714 1cbc
000003f0: 2a94 f53c eb41 513b fc58 3e3c c0f0 d2bc

model.layers.26.self_attn.v_proj.lora_b f4 [8, 512]
0.0009985437 0.0030145417 -0.006537454 -0.00043788133 -0.007245139 -0.00094003294 -0.0020372847 0.005614643
-7.4237105e-06 -0.0022240072 0.0066974945 0.013708639 -0.0016752331 0.007429384 -0.0091216825 0.010755574
-0.0015757559 -0.0022630119 -0.0034021856 -0.00044011758 0.0008332205 0.0078005395 -0.0038278808 -0.0066552055
-0.003247002 0.002312837 -0.010218398 0.0056290017 -0.0026683258 0.00074089895 -0.002429203 0.0008737329
-0.0049819057 0.01231602 -0.0021974496 0.0014518827 -0.0056778532 -0.004967944 -0.0028791 -0.006536282
0.006642096 0.0023393873 0.006430846 0.0017871364 -0.003780478 -0.00087704475 0.007582708 -0.0024900723
-0.011117659 -0.00033762067 0.0071585625 0.00012147038 -0.0031051545 -0.00096305803 0.004872788 0.004216025
-0.004380326 -0.0028156366 0.00440381 0.010713422 0.00728058 -0.0105412835 0.00015589478 0.0099579785
-0.0055991295 -0.0050846916 0.011938318 -0.0031056711 -0.00096224505 -0.0013643253 0.0040631276 0.009854299
0.0044008405 -0.0038626643 0.002751514 -0.0030053253 0.002423647 0.0034696267 0.004308884 -0.00342307
-0.0020719075 -0.006034012 0.0023853253 -0.007818654 0.00013143319 -0.0003051555 0.008531899 -3.9835788e-05
0.0017773735 0.007175483 -0.00579074 0.0043068393 0.003324595 0.0015883 -0.0060214335 -0.0041444437
-0.0023754768 0.0028491977 0.001509541 -0.0018994143 0.0023284764 0.0065746508 0.010696042 0.002591438
0.0070662433 -0.010303338 0.008539156 0.0038289563 0.0052126613 -0.010280003 -0.00078329025 -0.0024547155
-0.0048763403 -0.0003218352 -0.007966615 0.0040261494 -0.0039565023 -0.0010447868 -0.009656843 -0.009187869
0.00041908136 -0.011770125 -0.0027066134 -0.016201282 0.0032350705 0.002511071 -0.0025742135 -0.007105742
-0.002086703 0.009431005 0.0033023006 0.008443217 -0.007908528 0.0023091815 0.0005756891 -0.0068846983
-0.006104708 0.009333815 5.64424e-05 -0.00853838 -0.0061456086 0.00053346885 -0.0050926395 0.008041267
-5.5062632e-05 0.0044005956 -0.009875421 0.00884537 0.0032705213 0.009702319 -0.008754382 -0.0059281387
0.0031581444 -0.010549856 -0.002758506 0.0039120554 0.008045142 -0.00042208648 -0.007750225 -0.0027877663
0.005021662 0.004673171 0.0076197614 5.2227027e-05 0.015966734 -0.003197873 -0.0076221065 -0.0071705547
-0.003066768 0.0017144412 -0.0071394285 0.00967547 0.0137942005 0.0013123744 -0.009317969 -0.0077359164
0.0031854436 -0.003399295 0.011499246 0.008051652 -0.0009922688 -0.0013380233 0.0052357567 -0.001805024
-0.0017267152 -0.012945553 -0.0015071909 -0.004198186 0.005343676 0.00988096 -0.0030692003 -0.00018177739
0.0063512037 0.011407545 0.00782012 0.0043692216 0.012344305 -0.002295087 0.002248904 0.004593005
-0.0031439827 -0.009833765 -0.013747075 -0.0055318954 0.0022906617 0.0069941054 0.006796686 0.0014545576
-0.011081311 -0.0038157979 0.002681298 0.011584322 -0.007916543 0.0015573369 0.002025808 -0.00033326028
-0.0106174955 -0.0008291189 -0.0029923161 -0.005541437 0.006589113 -0.007850182 0.0017246982 3.024586e-05
0.010042769 0.0032270295 0.00088039896 0.003773846 0.0013408099 0.000525811 -0.007794527 -0.008942467
0.008520467 0.007869686 -0.00082475075 0.0026992806 -0.00845018 -0.0030383216 -0.012203531 -0.0024638209
0.0026744108 0.011220973 -0.0011195313 0.008341886 0.0049220063 0.010028021 0.0046911235 -0.0029486606
0.0012378338 -0.0029942866 0.0076839677 0.0011802682 -0.0058093774 -0.0022831485 0.010262868 -0.0012790235
00000000: 91e1 823a 9e8f 453b 2438 d6bb 7093 e5b9
00000010: a268 edbb 8b6c 76ba f783 05bb 0afb b73b
00000020: 3019 f9b6 a6c0 11bb a876 db3b 339a 603c
00000030: 7f93 dbba 3172 f33b 1c73 15bc 2638 303c
00000040: 9889 ceba 0a4f 14bb 34f7 5ebb 95bf e6b9
00000050: 7b6c 5a3a ab9b ff3b 2fdd 7abb e913 dabb
00000060: a7cb 54bb f792 173b 116b 27bc 7d73 b83b
00000070: 14df 2ebb e338 423a 4333 1fbb 390b 653a
00000080: 413f a3bb 22c9 493c 1603 10bb 194d be3a
00000090: 490d babb 23ca a2bb 48af 3cbb 4f2e d6bb
000000a0: f1a5 d93b 6850 193b d9b9 d23b 593e ea3a
000000b0: e5c1 77bb 7ae9 65ba 5d78 f83b 7b30 23bb
000000c0: d726 36bc ae02 b1b9 6092 ea3b eabd fe38
000000d0: d97f 4bbb bb75 7cba e9ab 9f3b 9526 8a3b
000000e0: d688 8fbb 8b86 38bb d64d 903b 5987 2f3c
000000f0: ee91 ee3b 59b5 2cbc b077 2339 ca26 233c
00000100: e778 b7bb 7c9d a6bb ef98 433c 8488 4bbb
00000110: 2c3f 7cba 29d3 b2ba fc23 853b ed73 213c
00000120: ed34 903b c124 7dbb bf52 343b fef4 44bb
00000130: 0dd6 1e3b ad62 633b 8a31 8d3b 9655 60bb
00000140: d7c8 07bb f6b8 c5bb 1e53 1c3b d019 00bc
00000150: 54d1 0939 47fd 9fb9 61c9 0b3c 5a15 27b8
00000160: c2f6 e83a 5020 eb3b 3fc0 bdbb 6320 8d3b
00000170: 73e1 593b 812e d03a 724f c5bb 1dce 87bb
00000180: e3ad 1bbb 9bb9 3a3b cadb c53a c5f5 f8ba
00000190: 5a99 183b 2b70 d73b 743e 2f3c 1dd5 293b
000001a0: f28b e73b 55cf 28bc d1e7 0b3c 3aef 7a3b
000001b0: f9ce aa3b 756d 28bc b855 4dba 4bdf 20bb
000001c0: b5c9 9fbb fdbb a8b9 6886 02bc caed 833b
000001d0: 8ca5 81bb 3af1 88ba bc37 1ebc b788 16bc
000001e0: 26b8 db39 7bd7 40bc 7061 31bb 8db8 84bc
000001f0: 7a03 543b c890 243b 23b4 28bb 49d7 e8bb
00000200: 11c1 08bb 8184 1a3c 696b 583b 6b55 0a3c
00000210: c592 01bc a355 173b d7e9 163a 0999 e1bb
00000220: 010a c8bb dcec 183c 91bc 6c38 90e4 0bbc
00000230: 1a61 c9bb 7dd8 0b3a 28e0 a6bb 85bf 033c
00000240: 0df3 66b8 df32 903b 85cc 21bc 2cec 103c
00000250: 3e56 563b 7af6 1e3c 8a6e 0fbc d540 c2bb
00000260: dff8 4e3b 4ed9 2cbc 0dc8 34bb b330 803b
00000270: c5cf 033c 7d4b ddb9 99f5 fdbb f5b2 36bb
00000280: c18c a43b 6621 993b 31af f93b 580e 5b38
00000290: abcc 823c 6893 51bb ddc2 f9bb f9f6 eabb
000002a0: d4fb 48bb 1ab7 e03a def1 e9bb dd85 1e3c
000002b0: 1201 623c fa03 ac3a 65aa 18bc 927d fdbb
000002c0: e0c2 503b b5c6 5ebb 5567 3c3c 14eb 033c
000002d0: 040f 82ba 9d60 afba b690 ab3b 8e96 ecba
000002e0: f352 e2ba 9619 54bc ef8c c5ba f090 89bb
000002f0: 011a af3b c0e3 213c a324 49bb 7f9b 3eb9
00000300: c21d d03b b6e6 3a3c f61f 003c b02b 8f3b
00000310: c53f 4a3c 2c69 16bb 5962 133b eb80 963b
00000320: 470b 4ebb cd1d 21bc 693b 61bc e744 b5bb
00000330: ed1e 163b cf2e e53b bcb6 de3b dba6 be3a
00000340: 638e 35bc 7712 7abb b7b8 2f3b 2bcc 3d3c
00000350: 63b4 01bc 8e1f cc3a 6bc3 043b 70b9 aeb9
00000360: 01f5 2dbc 3a59 59ba bc1a 44bb f194 b5bb
00000370: 7ce9 d73b 0d9e 00bc 450f e23a 7db8 fd37
00000380: 6d8a 243c 927c 533b 93ca 663a a152 773b
00000390: 1dbe af3a 94d6 093a 3b69 ffbb 6d83 12bc
000003a0: 6e99 0b3c dbef 003c 1634 58ba 6ae6 303b
000003b0: a072 0abc 941e 47bb 52f1 47bc 0e78 21bb
000003c0: 2b45 2f3b 2cd8 373c 3dbd 92ba 68ac 083c
000003d0: c848 a13b 924c 243c ffb7 993b 513e 41bb
000003e0: cf3e a23a cb3b 44bb cbc9 fb3b 3bb3 9a3a
000003f0: 975c bebb e0a0 15bb 9725 283c e8a4 a7ba

model.layers.27.self_attn.q_proj.lora_a f4 [3584, 8]
-0.008459945 0.01732602 0.012895093 0.0049544387 -0.016549041 -0.0032398514 -0.014175231 -0.009481916
-0.01246824 -0.0067942003 0.00121942 0.01600831 -0.025837423 -0.007041312 -0.0006600547 0.0030951293
-0.015603643 -0.016073963 0.009048595 0.0002747897 -0.025724875 -0.003247049 -0.016345818 -0.027867755
-0.028357798 -0.011416664 0.011133188 -0.014939047 -0.008014835 -0.0060234 0.0029133055 -0.01995189
0.020062136 -0.0058627515 0.004340312 0.0044387104 0.02719565 -0.015086155 -0.0058604074 0.0056421612
-0.01951474 -0.002696043 -0.016571902 -0.004924784 0.010193656 -0.001148565 -0.0055332906 0.004714101
-0.0050397483 -0.02766908 -0.025209157 -0.0067684227 0.026712969 -0.010866087 -0.009572026 -0.0037421675
-0.009388398 0.014419377 0.01692498 0.0010495979 0.01061051 0.0005739946 -0.021941893 0.008258681
-0.004370333 -0.017279886 0.005465076 0.0028153968 0.018051997 -0.013378037 -0.02092646 -0.0042148293
0.01236293 0.013483388 -0.0027247248 -0.029360501 0.010682121 -0.0030681982 -0.020799836 -0.011509634
0.0047886623 0.015516543 0.0019306167 -0.014139415 -0.0027082746 0.00699289 -0.015582749 0.00036392937
-0.0070345383 0.027299952 0.0062421733 -0.0067119193 0.018589785 0.0073877643 -0.0105451485 -0.015815241
-0.0088860765 -0.004187998 -0.0053052516 -0.012223473 -0.00018275846 -0.013846977 -0.012837807 -0.0002596561
-0.011830791 0.012093038 -0.0059900577 -0.0012121511 -0.0033333993 0.021456307 -0.00864661 -0.015106466
-0.014920489 6.0341e-05 -0.009128787 -0.025011837 0.021191686 0.00024209447 -0.011010624 0.007983852
0.012984738 0.0058030193 -0.005807624 0.014831363 0.018306997 -0.0029597757 0.009212163 -0.019276477
0.017795937 -0.0150847 0.010945924 0.00924444 0.0026361458 0.0059606642 -0.002629249 -0.013325584
1.2444449e-05 -0.0010343972 -0.01507861 -0.0052048103 0.009816746 0.0017613609 -0.027125882 -0.009458216
0.0058384584 -0.0045273537 -0.026078062 -0.0018054988 0.008565342 0.016926153 0.0021762855 0.00036896858
0.026162392 0.0014503968 0.018230088 0.016407005 -0.0015854493 -0.009343829 0.019052675 0.015542504
-0.0068091047 -0.0048447168 -0.010546894 -0.0064045084 -0.00044678175 0.016815675 -0.0065825987 0.01919025
0.021506494 -0.0077119563 -0.008637466 0.0151927825 0.0076852143 0.007635615 0.0065924875 0.010565881
0.0005604478 0.023052236 0.007335641 -0.019734163 -0.008781796 0.00792283 -0.007991786 0.004761356
-0.019889355 0.011077204 0.006034698 -0.0059017134 -0.017807955 -0.0011091955 -0.0049461317 0.0145477215
-0.004232191 -0.030987632 0.016074976 0.019265326 -0.009919771 -0.0006110714 -0.0063776225 0.012825854
-0.022061856 -0.00057413866 0.020116992 0.007952129 -0.019666506 0.020795885 -0.013590612 0.015039045
0.0009485611 0.012657501 0.004113637 -0.006802408 -0.0007031626 0.014644952 -0.0011580918 0.019391235
0.00093845156 0.009692825 -0.005740574 0.011998602 0.011445965 0.014274698 -0.017905267 0.0011102941
-0.0034305379 -0.016392644 -0.011671453 0.010588642 -0.015814668 -0.0055702883 0.011745571 -0.030907953
-0.022838373 0.0059236353 -0.003199834 -0.013152855 0.009676961 -0.005790214 0.019116055 -0.02003022
0.0027062362 -0.020654477 -0.00049538777 -0.022386752 -0.0040510567 0.00014303776 -0.028177103 -0.01328202
0.009925917 -0.011679426 -0.0071644774 -0.0075232224 0.017583963 -0.0071472446 0.004139969 0.0011722045
00000000: 959b 0abc 4cef 8d3c f145 533c d858 a23b
00000010: db91 87bc b053 54bb 3a3f 68bc 0a5a 1bbc
00000020: 9747 4cbc e2a1 debb f2d4 9f3a dc23 833c
00000030: 01a9 d3bc ceba e6bb 8507 2dba a7d7 4a3b
00000040: 6ca6 7fbc 8bad 83bc 8f40 143c a611 9039
00000050: f9bc d2bc 71cc 54bb aae7 85bc eb4a e4bc
00000060: 9d4e e8bc f60c 3bbc fa67 363c e8c2 74bc
00000070: a850 03bc f15f c5bb 28ed 3e3b 2572 a3bc
00000080: 5959 a43c 531c c0bb 2d39 8e3b 9a72 913b
00000090: 69c9 de3c ec2b 77bc a908 c0bb e1e1 b83b
000000a0: 60dd 9fbc 19b0 30bb ccc1 87bc 1560 a1bb
000000b0: 4b03 273c 728b 96ba 9b50 b5bb bf78 9a3b
000000c0: 7924 a5bb 44aa e2bc 6f83 cebc a5c9 ddbb
000000d0: 28d5 da3c ac07 32bc fdd3 1cbc 273f 75bb
000000e0: ccd1 19bc 403f 6c3c 41a6 8a3c a992 893a
000000f0: b4d7 2d3c 2078 163a 7cbf b3bc 6b4f 073c
00000100: 0335 8fbb 8c8e 8dbc 6114 b33b 8582 383b
00000110: c8e1 933c 8e2f 5bbc f86d abbc 8d1c 8abb
00000120: e38d 4a3c 6ee9 5c3c 4c91 32bb 6f85 f0bc
00000130: 1004 2f3c d313 49bb 6b64 aabc e792 3cbc
00000140: 36ea 9c3b 1939 7e3c bf0c fd3a 01a9 67bc
00000150: 4f7d 31bb 9d24 e53b c94e 7fbc c6cd be39
00000160: fc81 e6bb 26a4 df3c 258b cc3b a9ef dbbb
00000170: 9b49 983c 0f15 f23b 8fc5 2cbc f78e 81bc
00000180: e896 11bc 793b 89bb add7 adbb f644 48bc
00000190: daa2 3fb9 6ede 62bc aa55 52bc 7422 88b9
000001a0: efd5 41bc e121 463c 3f48 c4bb 0be1 9eba
000001b0: 2975 5abb 23c5 af3c 83aa 0dbc 1c81 77bc
000001c0: 1175 74bc a816 7d38 e890 15bc a0e5 ccbc
000001d0: 309a ad3c bdda 7d39 e765 34bc b4ce 023c
000001e0: f0bd 543c 4127 be3b e24d bebb 3fff 723c
000001f0: 8ef8 953c ccf8 41bb 9dee 163c b4e9 9dbc
00000200: c9c8 913c d125 77bc 8856 333c fe75 173c
00000210: 30c3 2c3b ad51 c33b 7a4f 2cbb 8d53 5abc
00000220: 80c8 5037 9c94 87ba 460c 77bc 1d8d aabb
00000230: 6bd6 203c 77dd e63a 1937 debc a2f6 1abc
00000240: 8a50 bf3b 325a 94bb a9a1 d5bc 7da6 ecba
00000250: a655 0c3c b7a8 8a3c 03a0 0e3b 2072 c139
00000260: 8352 d63c 3e1b be3a 4457 953c fc67 863c
00000270: dace cfba dc16 19bc 5b14 9c3c fda5 7e3c
00000280: e91e dfbb 6ec0 9ebb e1cc 2cbc e9dc d1bb
00000290: 083e eab9 07c1 893c d7b2 d7bb df34 9d3c
000002a0: 632e b03c 94b4 fcbb 2884 0dbc 26eb 783c
000002b0: 40d4 fb3b 2e34 fa3b cb05 d83b 841c 2d3c
000002c0: 04eb 123a 0bd8 bc3c d15f f03b 8aa9 a1bc
000002d0: 86e1 0fbc c2ce 013c fbef 02bc 2605 9c3b
000002e0: 00ef a2bc 297d 353c b7be c53b 2963 c1bb
000002f0: fde1 91bc 6d62 91ba 2913 a2bb 9159 6e3c
00000300: 31ae 8abb c6d9 fdbc abaf 833c 51d2 9d3c
00000310: 8986 22bc 4f30 20ba 60fb d0bb 8823 523c
00000320: 11bb b4bc cb81 16ba 64cc a43c a549 023c
00000330: a71b a1bc 225c aa3c 29ab 5ebc 5466 763c
00000340: dca8 783a 6861 4f3c b0cb 863b bce6 debb
00000350: 7154 38ba 61f1 6f3c 1dcb 97ba 5eda 9e3c
00000360: 6b02 763a a8ce 1e3c 6d1b bcbb c995 443c
00000370: db87 3b3c 6ce0 693c 11ae 92bc 4a87 913a
00000380: e0d2 60bb de49 86bc 9f39 3fbc fc7b 2d3c
00000390: c38d 81bc f786 b6bb 7f70 403c ad32 fdbc
000003a0: 8a17 bbbc 0e1b c23b 4eb4 51bb 137f 57bc
000003b0: 1e8c 1e3c d6bb bdbb 4699 9c3c 6a16 a4bc
000003c0: 1c5b 313b 9433 a9bc e9dc 01ba 6c64 b7bc
000003d0: babe 84bb 68fc 1539 abd3 e6bc d49c 59bc
000003e0: 50a0 223c 105b 3fbc fec3 eabb 5d85 f6bb
000003f0: 3e0c 903c 6f33 eabb 94a8 873b a8a4 993a

model.layers.27.self_attn.q_proj.lora_b f4 [8, 3584]
-0.0067269416 -0.003702891 0.015223301 -8.7116656e-05 0.0039600106 0.0035814885 -0.011679154 -0.008787405
0.00068094785 0.014222364 -0.0048280647 -0.0015439916 0.002478157 -0.0045303414 0.012182703 -0.0049651004
0.0042363075 -0.0065677385 0.011536107 0.01219996 0.00496037 0.0052376743 -0.0018146341 0.005323395
9.355656e-05 -0.007148054 -0.0015225373 -0.0036376396 -0.0011590108 -0.011041215 -0.005664453 0.0037998871
-0.0022525783 -0.0029796674 0.0077014617 8.805111e-05 -0.0012067579 0.0009507718 -0.00572592 0.004593273
0.00022414327 0.0038869365 0.005253004 -0.0021821654 0.0021483835 0.010877272 0.004741478 0.0013030167
0.0071740574 -0.0059603485 0.011242422 0.0022161945 0.008180249 0.0014479209 -0.00049793243 -0.00014160959
-0.00079563475 -0.006811868 0.005580868 -0.0054624374 0.0066464953 -0.0069819377 -0.0018594622 -0.010619321
-0.013741306 0.010541902 -0.015979057 0.013944584 -0.009459889 8.338537e-05 0.0014203922 -0.00383247
0.017441353 0.010991516 0.002138493 0.0004496273 -0.0026142555 -0.005437767 0.003039552 0.014505014
-0.004720852 0.004633418 -0.0073476816 -0.00061628234 -0.004520904 0.00642853 0.007169194 0.010328698
-0.005488515 0.003176482 0.00020252063 -0.0021517472 -0.0009615813 -0.00081547647 0.010151042 0.004798395
-0.000803332 0.0074724234 -0.000770539 0.0016614893 -0.010135837 -0.014065379 0.00018014343 -0.009009637
-0.00197582 -0.013542003 0.0017318137 -6.3916304e-05 -0.0022794693 0.002455822 -0.0030416877 0.0022090254
-0.004897953 -0.0030780474 -0.008575608 0.0035970728 0.0038154228 -0.005681955 -0.0060408534 -0.007885437
0.0031550517 0.0018717527 -0.009043426 -0.0010605897 0.0016526601 -0.005632057 -0.0019694052 0.002894688
-0.0071163084 -0.0052632703 0.0019563024 0.009880968 0.009186311 -0.0062081413 0.0071177594 -0.011987922
-0.008455596 -0.004642149 0.0005358938 0.014409841 -0.007157152 -0.008790648 -1.3497112e-05 0.0047166958
-0.005406033 0.0028276006 0.00080930395 -0.0023797832 4.1521587e-05 0.008453503 -0.004035697 -0.0038021388
0.00487426 0.012617486 -0.0016146479 -0.0067814654 0.00257185 -0.004020789 0.007729528 0.0014618455
-0.003963442 -0.0030964059 0.0014621675 -0.0022623579 0.002968641 0.0025250467 0.003244638 0.0036022856
-0.003177971 -0.0025941771 -0.00043892753 -0.0021773567 0.006956422 -0.0018075386 -0.007908031 -0.0074132443
-0.0032466047 0.0075265775 0.0069249794 0.01006606 0.0022633558 -0.0062973322 -0.010563532 0.00398193
-0.0063480292 0.010090311 0.0043836464 0.00518818 -0.003688398 0.009277971 0.0025803735 0.0046172417
-0.0042871675 -0.0030811867 0.015859561 0.010068958 0.005331263 -0.01392282 -0.009117966 -0.013673632
0.006060318 -0.011103457 -0.0039586723 -0.0014867903 -0.001618752 0.010827101 0.0031775746 0.0072508436
-0.0017772068 -0.0020155103 -0.008463878 0.016404254 0.003439901 0.0067951903 0.0040662764 0.00030569002
-0.0009543665 -0.0039647003 -0.00770554 0.0005310666 -0.0012115217 -0.00742403 0.0072553367 6.27798e-05
-0.0041948087 0.0049885083 0.00051638833 0.0010470853 -0.0073853275 0.004237288 -0.0040326943 -0.0031265626
-0.0038016525 -0.0022649227 0.0021864367 0.010056983 -0.0007638149 -0.0036736839 -0.0011032111 -0.00015481493
-0.0012575279 0.0019353224 -0.008156528 0.003646331 -0.002060745 0.0048471955 -0.00054495083 0.0015173784
-0.0061231283 0.0045582736 0.005790272 -0.008613055 0.00022952646 0.0029137891 0.0076168533 -0.008538797
00000000: ad6d dcbb 34ac 72bb 276b 793c 66b2 b6b8
00000010: fac2 813b 68b7 6a3b ec59 3fbc 0cf9 0fbc
00000020: a381 323a eb04 693c be34 9ebb c35f caba
00000030: 9368 223b 4273 94bb f699 473c 48b2 a2bb
00000040: b9d0 8a3b 2f36 d7bb f101 3d3c 57e2 473c
00000050: 998a a23b cca0 ab3b 04d9 edba e06f ae3b
00000060: cc33 c438 393a eabb e08f c7ba 7765 6ebb
00000070: f3e9 97ba 36e6 34bc e09c b9bb 8707 793b
00000080: fe9f 13bb 8646 43bb 8b5c fc3b 14a8 b838
00000090: 132c 9eba 373d 793a 80a0 bbbb 2b83 963b
000000a0: 0008 6b39 f9bb 7e3b 6421 ac3b a902 0fbb
000000b0: e5cb 0c3b 9636 323c 665e 9b3b fcc9 aa3a
000000c0: 5b14 eb3b 074f c3bb 2332 383c 933d 113b
000000d0: 7306 063c 2ac8 bd3a ae87 02ba 097d 14b9
000000e0: 2592 50ba 1736 dfbb b7df b63b 3ffe b2bb
000000f0: d8ca d93b bdc8 e4bb 33b9 f3ba a9fc 2dbc
00000100: 3723 61bc f1b7 2c3c 83e6 82bc d377 643c
00000110: a6fd 1abc 2edf ae38 742c ba3a 2d2a 7bbb
00000120: 2be1 8e3c c215 343c f525 0c3b f4bb eb39
00000130: ee53 2bbb 4c2f b2bb 3833 473b 70a6 6d3c
00000140: 60b1 9abb edd3 973b d2c4 f0bb 028e 21ba
00000150: 1724 94bb 6ba6 d23b 8feb ea3b b339 293c
00000160: 00d9 b3bb 862c 503b b85b 5439 5404 0dbb
00000170: a112 7cba b3c5 55ba 8e50 263c db3b 9d3b
00000180: b396 52ba 3bdb f43b fffd 49ba 54c6 d93a
00000190: c810 26bc 7a72 66bc e2e4 3c39 289d 13bc
000001a0: c27c 01bb 47df 5dbc 06fe e23a ce0a 86b8
000001b0: 2663 15bb dbf1 203b 0d57 47bb 4cc5 103b
000001c0: 027f a0bb 11b9 49bb b580 0cbc debc 6b3b
000001d0: 2c0c 7a3b b12f babb 5af2 c5bb ec31 01bc
000001e0: fcc4 4e3b 9955 f53a e12a 14bc 7c03 8bba
000001f0: 129e d83a 1e8d b8bb 2311 01bb ceb4 3d3b
00000200: ec2f e9bb 8377 acbb 4f35 003b c9e3 213c
00000210: 2e82 163c aa6d cbbb 183c e93b fd68 44bc
00000220: 5789 0abc 2b1d 98bb 397b 0c3a 4117 6c3c
00000230: 8b86 eabb a606 10bc a871 62b7 838e 9a3b
00000240: 1725 b1bb 444f 393b 7827 543a 23f6 1bbb
00000250: 7727 2e38 9080 0a3c e13d 84bb 4e2d 79bb
00000260: 42b8 9f3b 92b9 4e3c 98a2 d3ba 0e37 debb
00000270: 7c8c 283b d3c0 83bb fb47 fd3b 659b bf3a
00000280: c3df 81bb 12ed 4abb 33a6 bf3a 1144 14bb
00000290: 888d 423b 417b 253b fea3 543b 5314 6c3b
000002a0: 8245 50bb 1203 2abb db1f e6b9 fcb1 0ebb
000002b0: b2f2 e33b eeea ecba b090 01bc cdea f2bb
000002c0: fdc4 54bb 82a1 f63b f0ea e23b 1eec 243c
000002d0: cf54 143b da59 cebb aa12 2dbc da7a 823b
000002e0: 2103 d0bb d551 253c b1a4 8f3b 9c01 aa3b
000002f0: 0db9 71bb a202 183c 7c1b 293b 3b4c 973b
00000300: 5e7b 8cbb bced 49bb e9eb 813c 45f8 243c
00000310: e0b1 ae3b 8a1c 64bc 8563 15bc 5f07 60bc
00000320: a295 c63b 46eb 35bc c0b7 81bb 67e0 c2ba
00000330: 4e2c d4ba 2764 313c db3e 503b 7c98 ed3b
00000340: 2af1 e8ba a716 04bb 14ac 0abc 3762 863c
00000350: f66f 613b 30aa de3b 663e 853b 0545 a039
00000360: 742e 7aba 51ea 81bb c17e fcbb 4737 0b3a
00000370: eccb 9eba 4745 f3bb 2dbe ed3b a6a8 8338
00000380: 9b74 89bb a476 a33b 3c5e 073a 5a3e 893a
00000390: 9e00 f2bb f3d8 8a3b b124 84bb 04e7 4cbb
000003a0: 2525 79bb 196f 14bb 524a 0f3b 0bc6 243c
000003b0: c03a 48ba 30c2 70bb 9f99 90ba d155 22b9
000003c0: a2d3 a4ba a5aa fd3a f5a2 05bc 48f7 6e3b
000003d0: 900d 07bb 39d5 9e3b 08db 0eba c5e2 c63a
000003e0: 86a4 c8bb 925d 953b 52bc bd3b c51d 0dbc
000003f0: 0aad 7039 45f5 3e3b cc96 f93b 4fe6 0bbc

model.layers.27.self_attn.v_proj.lora_a f4 [3584, 8]
0.0011124688 -0.009783431 -0.0014915139 0.008447375 0.01812512 0.0075273756 -0.0029105027 -0.00014443434
0.002156448 0.004024253 -0.0027023745 0.0018425612 -0.015959341 -0.015049033 -0.01696783 -0.001247623
-0.009101978 -0.017211905 -0.00435177 0.018086765 0.001390896 0.011129462 -0.0053853313 0.025342869
0.009714328 0.0024270278 -0.009369686 0.0026777436 0.014023724 -0.0076077986 0.0030778293 -0.0049006636
-0.008844192 0.019025614 0.009464474 -0.0059552705 -0.003263202 -0.008341563 0.014258111 -0.0057291626
-0.0014203606 0.012790284 -0.011359424 -0.010404693 0.01171241 -0.010336515 -0.010272727 -0.0040754015
0.0056328936 -0.00018111814 0.012736113 0.008393314 -0.024960252 -0.00063018943 -0.00096580456 0.022076126
-0.011158288 -0.014342436 -0.008845651 0.002292713 -0.007733346 -0.0025452583 0.007850271 0.007266349
0.0060519986 -0.0029009846 0.0044319364 -0.019035922 0.0007334778 -0.007658687 -0.018808367 0.00785911
-0.009408838 0.019446298 -0.009182753 -0.03187743 0.0072109485 0.010201197 0.009014143 -0.005580288
0.00043620964 -0.011260039 -0.005793801 -0.016068991 -0.0020021675 0.0035626262 0.026992723 -0.017907925
0.029898271 0.0019467467 0.033467755 0.0015709613 -0.006974053 -0.0038184947 -0.016002009 -0.0035409215
0.009649535 -0.017363451 0.01626159 -0.008735207 0.026816396 0.011216823 0.00058102224 0.018882241
0.005169592 -0.016080692 0.0022866367 -0.0001158661 0.0006714712 -0.002150414 0.007656384 0.011357506
0.0078054955 0.015065183 0.010819769 0.0122360075 -0.010397212 -0.004679945 -0.014734154 0.013773856
0.0029013527 0.005236956 -0.0051234616 0.023998003 -0.0057279686 0.0122498255 0.011741888 0.0009296331
0.023794858 -0.010872644 0.011274104 0.0052762935 -0.02037017 -0.010926949 -0.006742948 0.007653595
-0.0139872115 0.020753078 -0.0036873012 -0.021812428 -0.00035758023 -0.008861242 0.012517073 -0.007722559
-0.006522337 0.010224286 0.022470534 -0.015044437 -0.013245779 0.012245143 -0.008059111 0.012178143
0.0059086205 -0.0009044194 0.0025498478 0.016008064 0.0003080596 -0.017382588 -0.017835135 0.021093853
0.0030609225 0.007179665 -0.0057950364 0.008500974 -0.016512768 0.0076687546 0.015798584 -0.017527943
6.0334718e-05 0.014324914 -0.0017043046 0.013143149 -0.010864 -0.006824495 0.0142378 0.014744683
-0.016116457 0.011699879 0.0062549864 -0.00059256295 0.0061200312 0.017355565 0.017857157 0.01162617
0.0051185703 0.027027398 -0.0056963842 0.021937374 0.015146829 0.002927364 0.01621312 -0.015843382
0.0017078306 -0.014699381 0.022271004 0.017486416 -0.0126100825 -0.015147188 -0.0074201985 -0.0099363355
0.020566415 -0.02736135 0.004585622 0.010274571 0.014333381 -0.0040836763 -0.0033170271 0.0035371347
-0.014501938 -0.0014652517 -0.010886972 0.00036413656 0.006226353 0.01774391 -0.00038508372 -0.0094311675
-0.008682915 0.011132047 -0.008050129 -0.0075074993 0.0020285032 0.0123148495 0.011055186 -0.019344473
0.009828141 0.009398605 0.0013008285 0.02213496 -0.020146064 -0.003244035 -0.0061247386 -0.0031380332
-0.0023872894 0.013793332 -0.0072518964 0.01893583 -0.004958579 0.0055799293 -0.01774457 0.019533958
-0.00039251102 0.014440918 0.0014717245 -0.014755558 0.017629676 -0.002414675 0.01653084 8.26053e-05
0.0016902208 -0.008951005 -0.001982084 0.0028860536 -0.009171437 -0.020808592 0.008737569 -0.01776791
00000000: 42d0 913a af4a 20bc e77e c3ba dc66 0a3c
00000010: 227b 943c 34a8 f63b 22be 3ebb 4c73 17b9
00000020: 3253 0d3b e2dd 833b 521a 31bb 1882 f13a
00000030: 2abd 82bc 3890 76bc 1e00 8bbc 4887 a3ba
00000040: 7620 15bc fbff 8cbc 4b99 8ebb b22a 943c
00000050: ba4e b63a 5958 363c 6f77 b0bb d99b cf3c
00000060: d828 1f3c c50e 1f3b 5083 19bc 157d 2f3b
00000070: c3c3 653c d74a f9bb 68b5 493b bf95 a0bb
00000080: 3be7 10bc 9bdb 9b3c e210 1b3c 6e24 c3bb
00000090: 72db 55bb 0dab 08bc da9a 693c b3bb bbbb
000000a0: 652b baba 578e 513c e11c 3abc 7278 2abc
000000b0: 68e5 3f3c 7c5a 29bc f14e 28bc f28a 85bb
000000c0: 2394 b83b 88ea 3db9 21ab 503c 1c84 093c
000000d0: 7179 ccbc 4c33 25ba 0c2e 7dba fed8 b43c
000000e0: 41d1 36bc 89fc 6abc 59ed 10bc 5741 163b
000000f0: 0268 fdbb 59ce 26bb 6c9e 003c 8e1a ee3b
00000100: d84f c63b 721e 3ebb c739 913b 39f1 9bbc
00000110: dd46 403a b9f5 fabb 0114 9abc 7fc3 003c
00000120: 8727 1abc d84d 9f3c 4273 16bc e891 02bd
00000130: d249 ec3b ec22 273c 0eb0 133c d9da b6bb
00000140: 11b3 e439 077c 38bc edd9 bdbb 1ea3 83bc
00000150: cc36 03bb f37a 693b d81f dd3c a4b3 92bc
00000160: 38ed f43c fb29 ff3a 7c15 093d b7e8 cd3a
00000170: 9986 e4bb b63f 7abb a516 83bc ce0e 68bb
00000180: 1519 1e3c cc3d 8ebc 0737 853c 1d1e 0fbc
00000190: 0fae db3c c4c6 373c be4f 183a eeae 9a3c
000001a0: ae65 a93b a8bb 83bc 66db 153b 24fd f2b8
000001b0: ab05 303a f6ed 0cbb 67e2 fa3b d514 3a3c
000001c0: 3ec5 ff3b f5d3 763c 6745 313c 8979 483c
000001d0: 1159 2abc 395a 99bb 8567 71bc bdab 613c
000001e0: 9f24 3e3b c59a ab3b b6e2 a7bb 7697 c43c
000001f0: afb1 bbbb 7eb3 483c 0c61 403c 9fb2 733a
00000200: 6fed c23c 2d23 32bc 05b7 383c c2e4 ac3b
00000210: 58df a6bc f206 33bc f3f3 dcbb 02cb fa3b
00000220: 9e2a 65bc 5c02 aa3c a6a6 71bb faaf b2bc
00000230: 9b79 bbb9 be2e 11bc 6914 4d3c 850d fdbb
00000240: 54b9 d5bb c383 273c 2014 b83c f17c 76bc
00000250: d304 59bc da9f 483c 5d0a 04bc d586 473c
00000260: 1a9d c13b 8f16 6dba 591b 273b 5823 833c
00000270: 0f83 a139 ee65 8ebc fd1a 92bc 04cd ac3c
00000280: c299 483b 6543 eb3b 4ae4 bdbb ab47 0b3c
00000290: c945 87bc 2d4a fb3b 086c 813c c396 8fbc
000002a0: e90f 7d38 0bb3 6a3c f962 dfba 5d56 573c
000002b0: ebfe 31bc 03a0 dfbb a945 693c af93 713c
000002c0: a906 84bc d9b0 3f3c a1f6 cc3b 3a56 1bba
000002d0: 8b8a c83b 422d 8e3c 2c49 923c b17b 3e3c
000002e0: aeb9 a73b 9068 dd3c bca8 babb 02b6 b33c
000002f0: 682a 783c 05d9 3f3b 61d1 843c fbc9 81bc
00000300: 49d9 df3a acd5 70bc ae71 b63c ac3f 8f3c
00000310: 859a 4ebc e92b 78bc 2325 f3bb 03cc 22bc
00000320: e67a a83c e924 e0bc fc42 963b ad56 283c
00000330: 8fd6 6a3c 5cd0 85bb 7b62 59bb 46cf 673b
00000340: 8999 6dbc b00d c0ba 455f 32bc 95e9 be39
00000350: 6f06 cc3b ad5b 913c 10e5 c9b9 2f85 1abc
00000360: c942 0ebc 3063 363c b0e4 03bc 7801 f6bb
00000370: a3f0 043b 39c4 493c d020 353c 4d78 9ebc
00000380: 3606 213c 9bfc 193c 9080 aa3a 6054 b53c
00000390: 5c09 a5bc e099 54bb 08b2 c8bb 76a7 4dbb
000003a0: 1274 1cbb 6dfd 613c 51a1 edbb 501f 9b3c
000003b0: 937b a2bb d7d7 b63b 0f5d 91bc ae05 a03c
000003c0: f0c9 cdb9 9a99 6c3c e1e6 c03a 4cc1 71bc
000003d0: 1c6c 903c 863f 1ebb af6b 873c 623c ad38
000003e0: 668a dd3a 3ca7 12bc dae5 01bb f223 3d3b
000003f0: cb43 16bc c876 aabc 0528 0f3c 028e 91bc
