qwen_7b_patch_adapters/adapters.safetensors (safetensors, 721766 bytes, 8 tensors)

model.layers.26.self_attn.q_proj.lora_a f4 [3584, 8]
000000 c2 c7 bd ba f8 86 90 bc 6a d9 c3 bb a2 0c fe bb
       -0.0014479088 -0.017642483 -0.0059768455 -0.007752971
000010 31 f5 3f 3a 5e f2 84 3c 70 5d a9 3c 66 2b 19 3b
       0.0007322608 0.01622885 0.020674437 0.0023371815
000020 fa bb e9 3c 6b ff a2 bc 0e 63 98 3a fa af 01 bc
       0.028532017 -0.019897183 0.00116262 -0.007915491
000030 7b dd f1 bb 7e f3 77 3b 0d f0 45 bb 7a f7 54 3b
       -0.007381139 0.0037834342 -0.0030202896 0.003249614
000040 22 02 b5 3c ed 6b 87 3b da 08 cc bb de f0 29 3c
       0.022095744 0.004132739 -0.006226641 0.010372369
000050 51 1b 7e bc 2a 62 07 3d 86 fc aa 3b b5 77 2d 3c
       -0.015509442 0.0330526 0.0052180914 0.010587622
000060 ef f6 af bb dc 33 09 bc 08 50 b5 bb e0 d7 d0 3b
       -0.005370013 -0.008374181 -0.005533222 0.0063733906
000070 29 7b a6 bb be 56 70 3c 54 1f eb bc 01 73 99 bc
       -0.0050806 0.014669118 -0.028701462 -0.018731596
000080 9b ac 96 bc 8d 6b 03 3c b9 9b ec bb 6a f4 97 bc
       -0.018392852 0.008021248 -0.007220712 -0.018549163
000090 91 43 31 bb 80 1b 99 3b a7 6b 3d 3c 24 4c ae bc
       -0.002704833 0.0046724677 0.011561311 -0.021276541
0000a0 5a 32 82 3c 87 10 aa 3b 2b 61 21 bc 79 60 a9 3c
       0.01589315 0.0051899585 -0.009849827 0.020675885
0000b0 05 fa 6c 3c 7b 6d ca 3b 44 e5 45 bc 59 10 80 ba
       0.014463906 0.006177602 -0.012078587 -0.0009770497
0000c0 17 51 0e bc 18 b1 95 bc 9a cf 26 3c f3 8d ce bc
       -0.0086863255 -0.018272921 0.010181332 -0.025214171
0000d0 c5 dc d5 bb 0c 78 7d 3c 6f 28 95 3b 7b a1 d1 bb
       -0.006526562 0.015470516 0.004551939 -0.006397424
0000e0 d1 d7 d4 3a 2a 40 25 3c 35 ab cb 3c e3 7a 3c 3c
       0.0016238635 0.010086099 0.024861911 0.011503908
0000f0 ed c4 13 3c 07 bd 5b bc 03 42 4d bc 49 1a 9a 3c
       0.009019119 -0.013411767 -0.012527945 0.018811362
000100 1a e7 20 3c f0 0a ac bc 41 98 4c bc f7 c3 9a bc
       0.009820724 -0.02100131 -0.012487472 -0.018892271
000110 11 e2 8e bb 8e 47 99 ba 7a dc 07 3c e3 9f 0a bc
       -0.0043604453 -0.0011694299 0.008292312 -0.0084609715
000120 4e cb 83 3c d5 46 aa 3b 69 b9 bb ba 7c 2d b5 3c
       0.016088154 0.005196432 -0.0014322224 0.022116415
000130 62 f3 95 3c 67 cb d9 bc 20 40 4c 3b a1 5e 97 bb
       0.01830453 -0.026586248 0.0031166151 -0.004619435
000140 c5 a0 37 bc 91 a0 ae 3b 4f 8d 8a 3c 70 cd 1a 3c
       -0.011207764 0.0053291996 0.016913084 0.009448394
000150 81 af 93 3c ca 6a 75 bb 5a b1 91 bc 8a 39 16 bc
       0.018028023 -0.0037447684 -0.017784763 -0.009168992
000160 1d 78 25 bc 0f 58 b2 3b b6 73 f2 3b af 1f 85 bc
       -0.010099438 0.0054426263 0.0073990477 -0.01625046
000170 43 7c 10 3c cd 92 8e 3c 2b 8c bb bc dd dc c5 ba
       0.008818689 0.017403984 -0.022893986 -0.001509573
000180 42 61 0e bc ee 25 a0 bc ce d8 b2 bc f8 e6 c1 bb
       -0.00869018 -0.019549336 -0.021831896 -0.005917426
000190 51 bd cf bc 3a 27 57 3b 99 e7 aa 3c 70 e4 79 3c
       -0.025358828 0.0032829777 0.020862387 0.015252218
0001a0 ab ae 3b bc 5b 36 c5 3c b5 70 da 3b c8 bc 82 ba
       -0.011455218 0.02407377 0.0066662678 -0.0009974474
0001b0 38 7f d4 ba d4 4f 4f bc ba 9c 9b bc a1 b8 ae bb
       -0.001621223 -0.01265331 -0.018995631 -0.005332068
0001c0 be 7c 8f 3b dc a3 66 bc e1 61 fd 3b 7b 89 5d 3c
       0.004378884 -0.014077153 0.0077326153 0.013521547
0001d0 b0 60 bb ba 02 c2 40 3c 47 33 9f 3a 80 e6 26 3c
       -0.0014295783 0.011765005 0.0012146019 0.010186791
0001e0 e2 bf e4 bc 3d b0 ae bb 3e 2d 80 bc 83 e7 24 bc
       -0.027923528 -0.005331068 -0.015646573 -0.010064962
0001f0 68 56 ad 3a f7 6b e8 b9 7b f6 61 3c ec de f0 3b
       0.0013224604 -0.00044330928 0.013791676 0.007350793
000200 28 26 0e 3b a1 47 a5 bc 14 a7 ba 3b 35 13 85 3b
       0.0021690223 -0.020175757 0.005696187 0.0040611275
000210 41 0c 00 bc fe 70 4d 3c 4d 20 e3 3c 97 31 0b bc
       -0.007815422 0.0125391465 0.027725363 -0.00849571
000220 fb 58 d1 3c 1d ef af 3c 84 5c 09 bc dc 89 c1 bb
       0.025555125 0.021476323 -0.008383874 -0.0059063267
000230 8d 73 90 b9 9f 1e 2d 3c 30 d9 d7 3b dc 0d 22 bc
       -0.00027551912 0.010566383 0.00658717 -0.009891
000240 5f 70 b0 3c b6 87 3d 3c 5c 2b f7 3a 3d 9e 38 bc
       0.021537958 0.011568001 0.0018857527 -0.011268196
000250 01 0f ad bc a3 7f 3c bb ae bf e8 bb 02 e9 b1 3c
       -0.021125318 -0.00287626 -0.007102928 0.021717552
000260 b8 40 80 bc 24 3c a5 bc ea a7 e3 bc b4 bb 9a b9
       -0.01565586 -0.020170279 -0.027790029 -0.0002951302
000270 aa d2 9f bc 48 16 76 3c 9b 85 56 bb 16 ad db 3c
       -0.019509632 0.015019961 -0.0032733444 0.026815932
000280 ea e9 85 3c aa 9f 11 3c 03 14 c4 3b 81 16 4d 3c
       0.01634689 0.008888165 0.005983831 0.012517572
000290 ff 59 3f 3c 55 fb 0d 3c 9f 47 bc bb 4c 25 39 bc
       0.011679172 0.008665879 -0.0057458426 -0.011300396
0002a0 6b f7 81 37 f3 59 02 3b 3e 66 8f 3c 75 c6 10 bc
       1.5493211e-05 0.001989004 0.017504808 -0.008836378
0002b0 15 9c 61 bc 46 47 04 3a c8 8d 30 bb f3 b6 88 3b
       -0.013770123 0.0005046021 -0.0026939977 0.0041722
0002c0 6a 19 87 3a 0e db 25 3c 53 56 31 3c 63 0c 8a 3c
       0.0010307257 0.0101230275 0.010823804 0.01685161
0002d0 c5 ac 35 3c 39 ae 91 bb 8d ea 3a 3c ae bf 0f bc
       0.011088555 -0.004445818 0.01140846 -0.008773727
0002e0 a0 e9 f0 3c 04 22 9a bc 93 ac 92 bc 8b d9 86 bc
       0.029408276 -0.018815048 -0.017904555 -0.016461154
0002f0 67 bb d5 bc 9f 76 19 bb b0 24 e3 3c 4e 53 11 3d
       -0.026090337 -0.002341665 0.027727455 0.035479836
000300 45 33 be bc c6 8b d8 bb 03 a9 71 3b 73 7d 01 bd
       -0.023217807 -0.006608459 0.003687442 -0.03161378
000310 b1 82 86 bb aa ea 5d 3c 48 f2 1d 3c c3 7b 7c 3c
       -0.004104935 0.013544718 0.009640284 0.0154103665
000320 e8 08 e7 3c 7c 7e 54 bc d7 fd 8f 3b 06 c1 ff bb
       0.028202489 -0.012969609 0.0043942737 -0.0078049926
000330 fd 23 59 3b 88 84 9c b9 c7 2e 12 bc 5b 14 82 bc
       0.0033133023 -0.00029853382 -0.008922285 -0.015878847
000340 36 c5 eb 3c e6 92 85 3a f4 42 a9 3c ed 0e 06 3d
       0.028780561 0.0010190874 0.020661809 0.032729078
000350 48 ce 5f bc 68 bf 0e bd 65 32 7e 3b ea d1 2f 3c
       -0.013660021 -0.034850508 0.0038787362 0.0107312
000360 87 93 e3 3c 29 ae 88 3c 41 36 7e 3c 5d 4f 87 3c
       0.027780307 0.016684609 0.015515865 0.016517336
000370 b1 74 93 3b 1e 41 18 bc 3f ad b0 3b e8 fb dc 3b
       0.0044999947 -0.009292869 0.0053917463 0.0067438968
000380 bc 13 a7 3c 61 b9 2d 3c 1e e1 56 bc 4d 8b 2e bc
       0.020395152 0.01060328 -0.013115196 -0.010653329
000390 ae b0 2e bc ff fc 82 bb 4f c6 2d 3c 54 d6 76 3b
       -0.010662241 -0.0039974446 0.0106063625 0.003766437
0003a0 53 8e 8a b8 7e 0c 9a 3c b9 60 73 3c c0 51 1c 3b
       -6.606863e-05 0.018804785 0.014854603 0.0023852438
0003b0 fc 7a 35 3c 49 95 33 3b 2f af 99 3c d0 2e 56 bc
       0.011076685 0.0027402213 0.018760292 -0.013072684
0003c0 ca 2d 6b bc c5 ab b4 3b 77 5e cb 3b 6b 2b 4a bb
       -0.014354179 0.0055136406 0.0062063294 -0.0030848633
0003d0 7b 75 85 bc cd 59 80 3c 75 7f 4a bc e1 42 cc bb
       -0.01629137 0.01566782 -0.01235949 -0.0062335585
0003e0 bf dd d1 3c a9 4d ae bc 30 04 7e 3c b3 f2 a0 3c
       0.025618432 -0.021277266 0.015503928 0.019646978
0003f0 23 38 54 bb 1b 73 e4 bc a5 83 c1 3b 0a 33 63 bc
       -0.0032382093 -0.027886918 0.005905586 -0.013867149

model.layers.26.self_attn.q_proj.lora_b f4 [8, 3584]
000000 40 9f 94 bb 2d 2d 2b 3c cf e1 82 bc 87 41 97 bc
       -0.0045355856 0.010447782 -0.015976815 -0.018463863
000010 eb 7e 80 3b 47 31 59 bb 2a 01 fd b9 56 f0 a1 ba
       0.00392138 -0.0033140944 -0.00048256788 -0.0012354951
000020 d1 14 ea bb 59 60 e7 ba 6c 4c 80 bc 15 17 b2 3b
       -0.007143595 -0.0017652615 -0.01566144 0.0054348805
000030 1d d0 b2 3b df b7 10 3b ce 1d 58 bc 7c 40 63 3c
       0.005456938 0.0022082252 -0.0131907 0.013870355
000040 b9 95 40 bc 76 2f 85 bc a5 3b 51 3b 38 e1 af 3b
       -0.011754447 -0.016257983 0.003192642 0.0053674243
000050 30 3d 80 3b b1 2c 81 3c f3 72 22 bb 05 f6 8c bc
       0.003913544 0.01576838 -0.0024787753 -0.017207155
000060 48 5e 0f bc 48 65 5c 3b 0d b4 0f 3c c4 b8 86 3c
       -0.008750506 0.0033629704 0.008770955 0.016445525
000070 91 a1 03 3b de cc 8e bc 44 2e db 3b 7f 70 9d 3b
       0.0020085315 -0.017431673 0.006688865 0.0048046703
000080 77 7d 38 3a 92 b3 bd bb c1 aa 22 bc 40 eb 52 bc
       0.00070377387 -0.0057892287 -0.009928406 -0.012873471
000090 5e da 03 bc 56 c2 1a 3c 59 41 20 3c 63 81 50 3c
       -0.008047668 0.009445747 0.009781205 0.012726161
0000a0 58 ef b3 bb 0a ee 99 3b 7f 96 26 3c 8e ad 53 bb
       -0.0054911785 0.004697566 0.010167717 -0.0032299492
0000b0 28 31 23 bc 41 9f 8e 3b 4f 4e 32 ba 98 f1 e9 3b
       -0.00996045 0.0043524806 -0.000680183 0.007139396
0000c0 bf da a9 bb ef a1 ef 3b 88 af 35 bb 07 aa 62 3b
       -0.0051835473 0.007313005 -0.0027723033 0.0034586207
0000d0 11 04 e9 b9 9c 5e bb 3b c5 f9 61 bc 81 fd e8 bb
       -0.00044444253 0.0057180654 -0.01379246 -0.007110298
0000e0 11 22 bf 3b 51 47 26 bc e7 04 2c bb f0 a5 da ba
       0.0058329185 -0.010148839 -0.002624804 -0.0016681533
0000f0 ad e0 de bb c1 32 1a bc ce 6d 78 3b c8 7f 0c bc
       -0.006801686 -0.009411515 0.0037907246 -0.008575387
000100 4e f8 97 b8 e8 5e 28 bc fe 8f 36 3a 7a 21 0c 3b
       -7.2464914e-05 -0.010276534 0.00069642055 0.0021382258
000110 f9 20 10 3c db 66 5e bc 09 e8 d6 bb 25 f6 23 3c
       0.008796924 -0.013574327 -0.0065584225 0.010007416
000120 11 66 80 3b 71 27 97 3c 39 54 36 3c 8a 16 8b 3c
       0.0039184173 0.018451424 0.011128479 0.01697852
000130 f7 ca 6e 3b 36 48 94 3b 22 c8 a2 bb 82 da 4e 3c
       0.0036436894 0.00452521 -0.0049677053 0.0126253385
000140 d4 80 3a bb 53 c5 71 bc cf c7 5c 3c bb bf 1e bc
       -0.0028458135 -0.014756518 0.013475372 -0.009689267
000150 71 4a 8f 3c db 82 73 3c f1 68 43 3b 4a 6c d4 3a
       0.017491551 0.014862741 0.0029817189 0.0016206589
000160 49 b0 80 3c 3f b8 cc 3b 14 6a 37 3c 5b f3 b6 ba
       0.01570906 0.00624755 0.011194725 -0.0013958024
000170 51 96 4c bb c2 eb 0f 3c 1c 38 15 3c 65 62 e1 3a
       -0.0031217525 0.008784236 0.009107616 0.0017195462
000180 03 dc 2e bc 7c d1 5e ba 1e 63 75 bb 07 56 0f bc
       -0.010672572 -0.00084998435 -0.0037443112 -0.008748538
000190 37 f8 cd bb df 7f 38 3b 3a 30 86 3b 29 54 b6 bb
       -0.006285693 0.002815239 0.0040951045 -0.005564232
0001a0 ea 2f d9 3b 95 e4 ea ba 38 d0 da 3b 66 ec d6 3b
       0.0066280263 -0.0017920906 0.0066776536 0.0065589426
0001b0 57 0c 81 3b be 5b 3c 3c 72 27 e1 bb 40 ce 11 bc
       0.0039382386 0.011496482 -0.0068711573 -0.0088992715
0001c0 0c 7f 22 3b 44 3d 00 3c d0 8a 7d bc d4 5a 9d bb
       0.0024794964 0.007827107 -0.01547499 -0.0048020873
0001d0 73 a7 5c 3c 27 ae d1 3b 5a 88 11 bb 0d ce 26 3c
       0.013467657 0.0063989344 -0.0022206516 0.010180962
0001e0 4b 11 21 3c 92 0c 10 3c 31 2e 08 bc 74 3d c9 3a
       0.009830783 0.0087920595 -0.008311794 0.0015353397
0001f0 37 81 f0 3b 41 c3 1f bc b7 78 f5 bb c4 80 ea 3b
       0.0073396224 -0.009751142 -0.007491197 0.0071564633
000200 2a ee 73 bc 9f 3f ad 3b 0f 45 05 bb 69 9d 6b bb
       -0.014888326 0.0052871252 -0.0020335352 -0.0035951978
000210 5f 6c 87 3c 7b f0 4f bc 74 af 01 3c 0c 2d 76 3b
       0.016531168 -0.012691612 0.007915366 0.003756347
000220 7d ac 77 bb d7 80 7f 3c f2 b0 ba 39 85 0f 01 3c
       -0.003779202 0.015594683 0.0003560852 0.007877235
000230 d9 09 10 bc cb e2 c7 3b 13 b7 4b 3c 31 a6 28 b9
       -0.00879141 0.006100034 0.012433785 -0.0001608364
000240 16 4a 6d 3c 08 cf 76 bb c2 68 46 3c 7b 49 fa 3b
       0.0144829955 -0.0037660021 0.012109937 0.007638154
000250 78 c2 26 3c 4f 62 5c 3a a0 d2 14 3b 55 2d 61 bb
       0.010178201 0.0008406983 0.002270855 -0.0034359295
000260 57 83 c8 bb a5 2d d4 3b f0 3e 33 bb b3 7e 0b 3c
       -0.0061191726 0.006475168 -0.0027350746 0.008514094
000270 c4 ac 69 ba af 9b a7 b8 41 b1 ff bb 2e 78 a3 bb
       -0.0008913989 -7.992179e-05 -0.0078031127 -0.004988692
000280 ac f0 ff 39 0b db 2d bc b0 19 a9 3b 15 a3 79 bc
       0.00048816705 -0.010611306 0.005160533 -0.015236636
000290 70 3c 38 3c 9f d8 7c bc 96 50 9e bb 08 be 85 bc
       0.011244878 -0.015432506 -0.004831384 -0.016325966
0002a0 a9 a9 1e 3c af 89 fe 3a a6 98 06 3a 38 56 1a 3c
       0.009684005 0.0019419695 0.0005134441 0.00941997
0002b0 a5 48 df 3b 13 63 0c 3c 2b 6f e6 3a 81 be c4 bb
       0.00681408 0.008568543 0.0017580738 -0.006004155
0002c0 2a 13 bd ba f4 ab aa 3b fe d9 c8 3b cc 3d 47 3a
       -0.0014425267 0.0052084867 0.0061295023 0.0007600456
0002d0 f0 e3 7c 3b ac 78 2c bc 5b f4 8f 3b 2f 89 79 3b
       0.003858801 -0.010526817 0.004393143 0.0038076153
0002e0 c8 e5 54 bc eb 6d 14 bc b6 c5 d1 bb b9 ba 29 3c
       -0.012994237 -0.00905941 -0.006401743 0.01035946
0002f0 29 6b 1a bc de 03 1c 3c 36 a9 a5 3b 0d 36 d8 3a
       -0.009424963 0.009522406 0.005055572 0.00164956
000300 29 a2 06 bc 0d 2f 4a bc 00 79 79 3c 9f d3 be 3b
       -0.008217373 -0.012340319 0.015226603 0.005823567
000310 25 1e 4b 3c 36 7e 57 3c d4 ca 2f bc cd d9 5b 3c
       0.012397324 0.01315265 -0.01072951 0.013418627
000320 5d ff 86 3a 00 77 26 bc 8e ee 62 3c 66 80 c2 3b
       0.0010299493 -0.010160208 0.013850821 0.0059357164
000330 60 c1 25 bc 12 78 7c bc a0 48 13 3c cd bc 2b 3c
       -0.010116905 -0.015409486 0.008989483 0.010482025
000340 d0 ee 04 bc c7 30 fd bb bc 0a d5 bb 96 14 d3 3b
       -0.008113578 -0.007726762 -0.006501524 0.006441663
000350 a3 1f 00 3b 90 49 99 3a ee b1 38 3a a9 74 a4 bb
       0.0019550107 0.0011694897 0.00070455566 -0.00501879
000360 84 fe 66 3b fd b0 3d bc 17 19 35 3c 14 fd 69 3c
       0.0035246918 -0.011577842 0.011053345 0.01428153
000370 aa 46 06 3b 79 46 2b bc 00 35 92 3c 90 6c 86 3c
       0.0020488896 -0.010453814 0.017847538 0.016409189
000380 e8 77 56 bb 04 af 1a 3c 78 f1 7d 39 f3 98 4c bc
       -0.0032725278 0.009441141 0.00024217914 -0.012487638
000390 9d 0e 7a bc 06 b3 67 3c 79 59 d3 3b 30 ef dd 3b
       -0.015262273 0.014141804 0.006449875 0.006772898
0003a0 05 12 21 bc 8c 13 28 3b be b6 61 bc a2 e9 01 bc
       -0.009830956 0.0025646416 -0.013776479 -0.007929238
0003b0 37 59 ea 3b 58 7a a3 bb 1f 1f 0b bc c6 cb 2a 3a
       0.0071517485 -0.0049889497 -0.008491307 0.000651535
0003c0 e3 0e 83 bc 14 cc ed bb 91 16 05 3a d0 d1 9e 3b
       -0.01599831 -0.007256994 0.000507691 0.004846789
0003d0 5c b3 b0 3a 04 9d 9e bb 32 ad d1 ba dd 0a 11 bb
       0.0013481188 -0.004840495 -0.0015997051 -0.002213172
0003e0 da c2 de bb fd da 48 3c 13 87 6d 3c 6d 3e c0 39
       -0.0067981305 0.012259242 0.014497536 0.00036667605
0003f0 64 83 ec 3b 88 05 76 bb 49 2f 22 bb 82 25 c5 bb
       0.0072178114 -0.0037539918 -0.0024747422 -0.006016434

model.layers.26.self_attn.v_proj.lora_a f4 [3584, 8]
000000 16 b5 34 3c 20 f6 74 bc d4 cf 21 3c a1 2f 6c bb
       0.011029502 -0.014951259 0.00987621 -0.0036039131
000010 61 1a b7 3c 7b f6 06 3a b0 49 73 bc ee de 69 3c
       0.022351446 0.0005148423 -0.014849111 0.014274342
000020 6b 17 9d bc 2c be a9 bb 4f e4 92 3b 9a 00 67 bc
       -0.019176206 -0.005180141 0.004482783 -0.0140992645
000030 93 83 13 ba c4 04 69 3c f6 a2 ff bc 90 43 90 ba
       -0.0005627211 0.014222328 -0.031205636 -0.0011006463
000040 2f d4 f9 3c 22 7c 74 bb 68 2e 76 3c 40 9a 02 3c
       0.030496685 -0.0037305434 0.015025713 0.007971346
000050 65 43 94 3c 2e 22 a0 3c d1 8a ba bc 8d 66 85 bc
       0.018098542 0.019547548 -0.022771271 -0.016284252
000060 54 15 96 3c 3a b8 33 3c 71 25 ba bb 3b b2 62 bc
       0.018320717 0.010969216 -0.005680733 -0.013836439
000070 65 7e 92 3b 3c 95 4e 3c f8 fb 87 b9 09 3f 31 bc
       0.004470634 0.012608822 -0.00025936938 -0.010818251
000080 9a 68 77 3b a6 da 32 bc c9 27 cd 3c f5 49 a0 bc
       0.0037751556 -0.010916388 0.025043385 -0.019566515
000090 00 74 8d 3b 71 fa 62 3c 99 50 be bc a6 a1 01 3d
       0.004316807 0.013853655 -0.023231791 0.0316483
0000a0 1d 48 80 bc 61 f8 b6 bc 79 e5 6a bb 23 5f b0 ba
       -0.015659386 -0.022335233 -0.0035842343 -0.0013456087
0000b0 b1 c2 1f ba 67 d5 56 bc ea 1a d7 3a a8 5b 8e 3c
       -0.000609438 -0.0131124025 0.0016411219 0.01737769
0000c0 12 7c ea bc 54 f4 45 bc 1c 94 17 bc 7a fc a3 3c
       -0.028623614 -0.012082178 -0.009251621 0.020017851
0000d0 ec 46 b4 bc 98 49 e5 bc 4e 34 f2 ba 45 61 80 3b
       -0.022006474 -0.027989194 -0.0018478723 0.0039178454
0000e0 cf 80 99 3c 60 b4 4a 3c 81 11 1c bc 38 10 3b 3c
       0.018738179 0.012372106 -0.009525658 0.011417441
0000f0 30 fa 58 bc 07 25 16 3c 39 2b 74 ba ca 12 6e bc
       -0.013243243 0.009164101 -0.0009314302 -0.014530847
000100 8c a4 f7 bb ad ae d0 3b 7e 25 fc 3c 79 a0 bb bc
       -0.0075574573 0.006368479 0.030779596 -0.022903668
000110 ff 38 07 3b 49 84 86 3c 82 4b 5e bc 35 49 42 bb
       0.0020633338 0.0164205 -0.013567807 -0.0029645686
000120 31 c6 20 bc 92 b4 8c 3c 77 51 a3 3a f1 43 ad bc
       -0.0098128775 0.017175946 0.0012460192 -0.021150561
000130 76 17 f2 bb 8b ba bc 3c 32 08 8b 38 94 97 88 bc
       -0.0073880507 0.02303817 6.629563e-05 -0.01667384
000140 26 aa 0b 3c a8 8f 9f bb ca 22 49 3c 75 db d0 bb
       0.008524453 -0.00486942 0.012276361 -0.0063738176
000150 7d 07 02 3c e2 25 66 b9 22 8a d0 bb 3d 98 0d bc
       0.007936356 -0.00021948622 -0.006364123 -0.0086422535
000160 3c 54 fb 3a bb 12 a8 bb 4a 43 88 bc 58 75 21 bb
       0.0019174884 -0.005129186 -0.016633648 -0.0024636593
000170 20 95 c8 bb 94 fa 34 bc 6b 93 9d 3c 49 e1 ad bc
       -0.0061212927 -0.011046071 0.019235333 -0.021225588
000180 a0 18 e9 3a 23 16 a2 3c b5 bc 93 3c 2b 44 bd 3c
       0.0017783828 0.019785946 0.018034318 0.023103794
000190 dc 8e 96 bc a3 19 ce bc 43 d9 41 3a 00 f4 14 3d
       -0.018378668 -0.025158709 0.000739474 0.03636551
0001a0 71 17 3a 3c f4 e8 62 bc 27 f2 b3 3b 68 95 36 bc
       0.011358128 -0.013849486 0.0054915133 -0.01114402
0001b0 9f c1 90 3b a2 97 9b 3c fe 6f 89 bb d3 27 74 bc
       0.0044176127 0.018993203 -0.0041942587 -0.014902073
0001c0 b0 e4 b2 bb 44 e5 71 bc 10 a5 90 bc f1 1a d3 bb
       -0.0054593906 -0.014764134 -0.017656833 -0.0064424207
0001d0 4e dc 37 3b 1b 69 48 3c 61 3d 2a bc 13 65 03 bd
       0.0028054896 0.01223209 -0.01039061 -0.032078814
0001e0 1c f3 f2 bc 7a 51 a4 bc ef e9 21 3c c7 1d 8f bc
       -0.02965694 -0.020058382 0.009882434 -0.017470254
0001f0 1d 33 4c bc 85 7e 03 bc c5 76 33 bc 28 9e a7 3b
       -0.012463358 -0.00802577 -0.01095361 0.0051152892
000200 71 34 7f bb ad 0f 53 bc 1f 29 eb bc f2 3a 4d 3b
       -0.003894117 -0.012882155 -0.028706132 0.0031315652
000210 ec e5 03 bc 81 ec 56 3b 6a eb 76 3a 31 ff f1 bb
       -0.008050423 0.0032794776 0.00094192347 -0.0073851575
000220 5f 59 a5 3c 2f 00 6c bc 2a cf 73 3b f3 e7 63 bc
       0.020184217 -0.014404341 0.0037202337 -0.0139102815
000230 b6 8e 94 3b 8b 57 a8 ba c5 ba 78 bc c4 9d 94 bc
       0.004533614 -0.0012843473 -0.015181248 -0.018141635
000240 a4 e6 17 bc b3 93 fb bb e4 38 b5 bc 95 fb 56 bc
       -0.009271298 -0.007677519 -0.022121854 -0.013121505
000250 df 16 ab 3c 8b 75 b2 bc 3f 82 7e 3c 73 a7 ff bb
       0.02088493 -0.021784564 0.015533983 -0.007801944
000260 2f a0 aa bb 4c 81 a9 3c a5 a5 e0 bc 51 95 be 3c
       -0.0052070837 0.020691536 -0.027422735 0.023264559
000270 99 9e 6d bc a7 96 c7 bc bf c0 07 bb 24 20 5b bc
       -0.014503145 -0.024363829 -0.002071425 -0.013374362
000280 d7 f6 2e 3c 20 4e a5 bc fa 8c f2 3a b5 01 6d bc
       0.010678968 -0.020178854 0.0018505149 -0.014465739
000290 32 fd 40 3c 58 68 9d 3c a0 22 93 bc 06 04 91 3c
       0.0117791165 0.019214794 -0.017960846 0.017702114
0002a0 d6 1f ff 39 3f 2c c4 3b 83 d2 3a bc 9d e4 b3 3b
       0.0004866111 0.00598672 -0.011402729 0.0054898993
0002b0 2d c5 47 bb 0a 1f d9 bb 5d 84 d0 bb cf 26 f7 39
       -0.0030482516 -0.0066260146 -0.006363435 0.00047140426
0002c0 cc 60 a0 3c 1d 0a 25 3b 78 23 3f 3c 04 f1 e6 bc
       0.019577406 0.002518303 0.011666171 -0.028191097
0002d0 81 a2 bf 3c f9 2a 91 3c 85 b3 8e bc a0 c4 e9 b7
       0.023392918 0.017720686 -0.017419586 -2.7867325e-05
0002e0 2a 60 51 3c de 3f 0d 3d f7 47 aa 3a df e7 40 3c
       0.012779275 0.034484737 0.0012991418 0.011774032
0002f0 16 35 00 3c 50 5c 8a 3b ce 26 3a 3b 46 60 2a bc
       0.007825157 0.0042224303 0.0028404477 -0.01039893
000300 15 43 7b 3c 12 45 d0 3c d9 5a 97 bb a2 4a cb 3c
       0.015335818 0.02542356 -0.004618984 0.024815861
000310 03 d4 89 bc 80 1e 87 bc 7c 3b 31 3c 80 30 8b bc
       -0.016824728 -0.016494036 0.010817405 -0.0169909
000320 9d cb c7 3c 9b 00 32 bc d2 14 89 3b 2f fa 87 bc
       0.024389083 -0.010864402 0.00418339 -0.016598789
000330 b9 02 09 3c 74 d8 14 3c 20 f6 34 bc 87 16 aa 3b
       0.008362466 0.00908481 -0.011045009 0.0051906737
000340 bd 81 92 3c 82 13 1f 3a 83 f7 eb 3c 84 a6 cc bc
       0.01788413 0.00060682755 0.028804546 -0.024981745
000350 9b 2c a6 3b cc e7 93 3b dd 55 cf bc 1d e5 2c 3c
       0.0050712354 0.0045137163 -0.025309497 0.010552672
000360 0d f0 2d bb bf 30 5f bc 48 fd ef 3c 3c fe 5a bb
       -0.0026540786 -0.013622462 0.029295579 -0.0033415696
000370 63 83 0d 37 18 37 98 3c c1 8d bb b9 9e 7e 81 bb
       8.434846e-06 0.018580958 -0.00035773034 -0.0039518615
000380 43 00 a5 3c 51 41 e5 bb a9 01 14 bc 06 10 0c ba
       0.020141726 -0.0069963117 -0.009033599 -0.0005342964
000390 fd a8 72 bb b9 e7 9a bc ad 9e a0 3c f2 d5 4a bc
       -0.0037026994 -0.018909322 0.019606913 -0.01238011
0003a0 04 cf 4f bb dc 16 72 3c 35 28 49 bc 85 58 e4 3b
       -0.0031709084 0.014775958 -0.0122776525 0.00696856
0003b0 76 31 98 3c d9 27 87 bc 11 40 b3 3c ba b3 d2 bb
       0.018578272 -0.016498493 0.021881135 -0.0064301165
0003c0 05 d1 b9 3b 88 d6 57 bc 74 6f 8a 3c 7e 3d 7d bc
       0.005670669 -0.013173707 0.016898848 -0.015456555
0003d0 8d a7 aa 3b bb fb ac 3c e0 82 f3 bc b4 2c 33 b9
       0.005207962 0.021116128 -0.029725492 -0.00017087423
0003e0 f9 57 b9 bc d5 ad 96 bc c0 ab 1c bc 71 f3 34 bc
       -0.022624956 -0.018393436 -0.009562433 -0.011044369
0003f0 f0 9a fd 3c cd 64 4d bb bf df 9e 3c d7 fb f3 bc
       0.030957669 -0.00313406 0.0193938 -0.029783173

model.layers.26.self_attn.v_proj.lora_b f4 [8, 512]
000000 04 44 51 3b 5e fc 4d 3b 27 64 04 3a 9a 5b 77 ba
       0.003193141 0.003143094 0.0005050324 -0.0009435952
000010 53 84 68 bc f6 61 0e 3a ec 33 c4 ba 55 31 6b 3b
       -0.014191705 0.00054314674 -0.0014969087 0.0035887558
000020 28 ff 14 bb db 10 3b bb e6 68 3d 3c ea cd 3e 3c
       -0.0022735093 -0.0028543982 0.011560654 0.011645773
000030 f3 a2 28 bb 06 0a 4d 3c 6b 10 47 bc 7b 40 42 3c
       -0.002573189 0.012514597 -0.01214991 0.011856194
000040 e5 18 94 bb 87 ca 37 38 17 56 a3 bb 81 1c 18 3a
       -0.004519569 4.381922e-05 -0.004984628 0.0005802587
000050 c7 36 0c 3b d0 43 72 3b 72 4b bb bb 0d 6f 29 bb
       0.0021394955 0.003696669 -0.005715781 -0.0025853545
000060 26 69 81 bb 64 f9 cc 3a a4 d4 63 bc c6 f7 de 3b
       -0.0039493022 0.0015638289 -0.013905678 0.0068044392
000070 35 39 a2 3a 6a 68 5d ba 11 4d a0 bb 87 d6 16 bb
       0.0012376668 -0.000844604 -0.0048919995 -0.0023016052
000080 9c fd 30 bb e5 84 84 3c 7e d1 18 bb 1a 8e af 3b
       -0.0027006632 0.01617665 -0.0023318226 0.005357516
000090 f7 05 32 bb e2 97 e6 bb 11 37 01 bc 69 80 19 bc
       -0.00271642 -0.007037149 -0.007886664 -0.009368994
0000a0 21 78 d1 3b 7f 60 be 3b 9f 45 25 3c 58 a7 8a 3b
       0.0063924943 0.005809843 0.0100874 0.0042313747
0000b0 a4 5d c4 ba ce a9 9a 3a 52 c4 64 3c b8 c9 18 bb
       -0.001498152 0.0011799873 0.013962822 -0.0023313593
0000c0 98 ec 2d bc 71 13 ad 3b ba 07 2c 3c 42 0c 8a ba
       -0.01061549 0.0052818586 0.010499889 -0.0010532218
0000d0 8c 5e ea bb b5 90 47 ba 43 e9 95 3b ba 04 33 3a
       -0.007152384 -0.00076128106 0.004574926 0.00068290124
0000e0 80 2a 6c bb 92 cd 2e bb ad 78 1c 3c 05 5d f6 3b
       -0.0036036074 -0.0026672822 0.009550256 0.007518413
0000f0 4c 4a b8 3b b8 51 3b bc 73 13 7d 3a b7 ee 55 3c
       0.0056240913 -0.0114330575 0.0009654082 0.013057402
000100 e9 39 b9 bb 13 89 a7 bb c9 e8 1d 3c 29 23 56 ba
       -0.0056526554 -0.005112776 0.00963802 -0.00081686914
000110 f0 e9 04 bb 2d ef 89 3a aa 36 20 3c aa f3 01 3c
       -0.002028104 0.001052355 0.009778658 0.007931629
000120 2e 37 ab 3b f1 59 4e bb a2 a8 b7 3a 2f 37 6f bb
       0.005225084 -0.0031486715 0.0014012048 -0.0036501398
000130 e8 49 8d 3b 02 43 0b 3b 1c 60 ae 3b a7 dd b2 3a
       0.004311789 0.0021249657 0.0053215157 0.001364638
000140 ec 9c 32 bb 98 ba 90 bb 26 fa 34 3b 1b 95 1d bc
       -0.0027254177 -0.004416775 0.002761492 -0.009618069
000150 66 70 94 3b 6d 9c 64 3b 41 8c 2d 3c 26 3b 9d bb
       0.0045300005 0.0034883276 0.010592521 -0.004798311
000160 4b 9f 2a 3b 44 fd 2f 3c b2 3a 1a bc f1 4c b1 39
       0.0026034887 0.010741536 -0.009413408 0.00033817397
000170 42 19 84 3b 6e c6 58 bb b6 8a f5 bb 27 b4 78 bb
       0.0040313313 -0.0033077258 -0.0074933423 -0.0037949176
000180 30 4e 8c bb d5 bb 7a ba 64 55 f8 39 c9 0e a4 bb
       -0.0042817816 -0.00095647323 0.00047365867 -0.0050066453
000190 85 d5 8a bb b1 64 bb 3b fb 32 40 3c 86 c7 0b 3b
       -0.0042368793 0.0057187905 0.011730905 0.0021328642
0001a0 54 8a 48 3c d8 b5 f6 bb bc 0e 36 3c 85 3e ce 3b
       0.012240011 -0.0075290017 0.011111911 0.006294074
0001b0 eb 8b 8c 3b e1 0a 35 bc 37 8e 2e ba 3b 47 2f bb
       0.0042891405 -0.011049957 -0.0006658765 -0.0026745338
0001c0 41 5c 2f bb 52 ca 25 3b 89 59 d0 bb 24 a2 2e 3b
       -0.0026757868 0.0025297594 -0.0063583297 0.0026646936
0001d0 16 b9 d1 ba 6b 25 0c bb bf 71 38 bc ef 65 3b bc
       -0.0016000594 -0.0021384608 -0.011257588 -0.011437877
0001e0 b6 59 9e 3a 71 0b 98 bc 84 47 40 bb 56 af 87 bc
       0.0012081179 -0.018560143 -0.0029339502 -0.016563099
0001f0 8f da 9c ba 87 2f 8a b9 a2 c4 9a bb 5a 6d 19 bc
       -0.0011966991 -0.00026356822 -0.0047231475 -0.00936445
000200 f9 da 0d 3b 54 f8 01 3c a5 8e 98 ba 82 f6 91 3b
       0.002164541 0.007932741 -0.0011639191 0.004454435
000210 f8 91 f8 bb b5 f1 11 3b 6e 54 41 3c 16 31 ac bb
       -0.00758576 0.0022269313 0.011799915 -0.005254875
000220 99 12 ec bb c9 45 27 3c b9 e5 16 39 6d 4f 2d bc
       -0.0072043655 0.010209509 0.00014390693 -0.010578019
000230 b4 dd c2 bb b9 9e 0c bc 43 29 fa bb f5 a0 0b 3c
       -0.005946839 -0.008582764 -0.0076343133 0.008522262
000240 64 82 a0 bb ef 45 9e 3b b0 4e 02 bc f1 c5 5b 3c
       -0.0048983563 0.004830114 -0.007953331 0.013413892
000250 e9 7b 49 bb 7f 88 81 3c ee a5 16 bc 3c aa b0 bb
       -0.0030744022 0.015812157 -0.009194834 -0.0053913873
000260 86 f6 63 3b 15 28 81 bc d1 9a 89 3a 38 2e 39 3b
       0.003478439 -0.015766183 0.0010498409 0.0028256308
000270 0e 04 fc 3b 23 24 61 ba f7 15 f3 ba 66 63 30 bc
       0.007690913 -0.00085884536 -0.0018545975 -0.010765886
000280 08 c2 7b b9 fe 98 2a 3c 29 c2 4b 3c 04 70 5f 3b
       -0.00024009508 0.010412453 0.012436428 0.0034093866
000290 fb d6 53 3c c4 f1 df bb b3 06 44 bc 48 ef 19 bc
       0.012929673 -0.0068342406 -0.011964488 -0.009395428
0002a0 13 39 a8 bb 13 95 ab 3b e8 ab 3f bc 89 7b 3a 3c
       -0.005133757 0.005236277 -0.0116987005 0.011381992
0002b0 70 e6 69 3c a1 b4 9d 3a d0 4b 12 bc 0f af da bb
       0.014276132 0.0012031981 -0.008929208 -0.0066737006
0002c0 04 bc bd 3b 78 c5 95 bb 78 db 80 3c 02 23 13 3c
       0.0057902355 -0.0045706593 0.01572965 0.0089805145
0002d0 f2 7b 26 bb 8a 79 c5 bb 1c b8 52 3c 53 19 c3 b8
       -0.0025403467 -0.0060264515 0.012861278 -9.3030416e-05
0002e0 af c3 cb ba 55 7a 3b bc d4 27 8f ba 5f 24 ad b9
       -0.0015545989 -0.01144274 -0.0010921904 -0.0003302423
0002f0 bc ee 67 3b 7d ae 1f 3c b7 7d e8 bb f3 c5 63 3a
       0.00353901 0.009746191 -0.0070950645 0.00086888595
000300 8b c0 42 3c f2 e3 2c 3c 74 e5 0c 3c 0c cc 78 3b
       0.011886726 0.010552393 0.008599628 0.0037963418
000310 37 48 80 3c 3d 4c 10 bc 84 3a 0e 3b 78 9a f9 3a
       0.015659435 -0.008807239 0.0021702358 0.0019043228
000320 f6 a3 41 bb b4 17 59 bc 4c e6 a0 bc 87 29 5d bb
       -0.0029547191 -0.01325028 -0.019641064 -0.0033746676
000330 64 49 30 3c da 54 31 3c d0 fd 8d 3c af 0a 10 3b
       0.010759685 0.010823453 0.017332941 0.0021979024
000340 7b 0c 1a bc 38 2e b1 3a 9b 27 3f 3a f7 a3 96 3c
       -0.00940239 0.0013517803 0.00072919735 0.018388731
000350 f3 38 11 bc 75 0f 4a 3c 4f 18 1b 3c 35 23 b1 bb
       -0.008863675 0.012332787 0.009466245 -0.0054058083
000360 cc 7c 03 bc a1 58 ff 3b e0 e2 a5 bb 17 17 c5 bb
       -0.008025359 0.007792548 -0.005062446 -0.0060147154
000370 76 85 76 39 86 94 9c bc 65 76 0d 3b 91 2c 0d bb
       0.00023510106 -0.01911379 0.0021585461 -0.0021541456
000380 1a 0d 10 3c 1d cb 35 3b 15 81 c9 bb fe d9 db 3b
       0.008792186 0.0027739473 -0.006149421 0.0067093363
000390 84 d6 04 3b d8 c5 47 3b 53 6b 45 bc a2 4e 57 bc
       0.0020269463 0.0030482914 -0.012049514 -0.013141306
0003a0 de 7f 0e 3c 0f b8 38 3c d8 59 df 3a 6c 66 3c bb
       0.008697478 0.011274352 0.0017040325 -0.0028747572
0003b0 86 5e d5 bb f1 f9 5a bb 80 32 40 bc 85 72 ad ba
       -0.006511512 -0.0033413137 -0.01173079 -0.0013232982
0003c0 18 8e a6 3b d3 eb 88 3c 5b 7b 0c bb 8b e1 60 3c
       0.005082857 0.016714012 -0.002143583 0.013725649
0003d0 34 d2 19 3c c0 15 1d 3c e6 9d 09 3b 22 e5 a3 ba
       0.009388495 0.009587705 0.0020998656 -0.00125042
0003e0 2b 65 ad b8 93 7a b6 bb 9c 99 23 3c 43 3c 97 3a
       -8.268127e-05 -0.005568811 0.009985354 0.0011538345
0003f0 b8 ac 15 bb 73 e4 12 ba 86 ce e3 3b ab a5 ce bb
       -0.0022838544 -0.00056034996 0.0069521097 -0.0063063703

model.layers.27.self_attn.q_proj.lora_a f4 [3584, 8]
000000 1c 0f 32 bc d4 66 91 3c 5c 97 20 3c 09 f3 05 3c
       -0.01086786 0.017749228 0.009801712 0.00817562
000010 bb 09 93 bc 81 d1 f7 ba 76 b7 0e bc b5 03 01 bc
       -0.017948976 -0.0018907042 -0.008710733 -0.007874419
000020 5b 96 84 bc 82 fa c4 bb 82 01 1a bb 7c 97 74 3c
       -0.016184976 -0.006011308 -0.0023499434 0.014928695
000030 1c 84 eb bc 59 ef 09 bc 8f 9a 87 bb 10 2a e5 3b
       -0.028749518 -0.008418881 -0.004138298 0.0069935396
000040 3d 7c 62 bc 17 b2 97 bc 7e b2 62 3c d1 c2 b6 3b
       -0.013823566 -0.018517537 0.013836501 0.005577423
000050 05 4b d3 bc bf 47 ac bb 08 1d 60 bc 3c 75 c8 bc
       -0.025792608 -0.0052575762 -0.013678797 -0.024469964
000060 74 54 08 bd bf 06 37 bc 49 d7 13 3c bc 43 6c bc
       -0.033283666 -0.011171042 0.009023496 -0.014420446
000070 7a 46 c7 bb 35 6c f1 bb 3f fa 2a ba 17 e3 9f bc
       -0.0060813995 -0.0073676356 -0.0006522275 -0.019517465
000080 48 c4 b8 3c 72 57 0d bc 92 04 af 3b 64 cb b5 3b
       0.022554532 -0.008626806 0.005341121 0.0055479277
000090 35 46 0b 3d a1 04 92 bc 08 19 9f 3a a8 d6 d9 3b
       0.0340025 -0.017824473 0.0012138197 0.0066479035
0000a0 49 19 bf bc 48 03 df bb 39 e6 61 bc e5 6f 88 bb
       -0.023327487 -0.006805811 -0.0137877995 -0.0041637295
0000b0 28 d0 3c 3c 53 fa 45 bb a2 4f 6c bb 8d 9f a1 3b
       0.011524238 -0.003020902 -0.0036058207 0.00493235
0000c0 b9 5d 46 bb a4 36 f9 bc 95 6c eb bc 68 2c 17 bc
       -0.0030268265 -0.030421562 -0.0287383 -0.009226896
0000d0 cc 02 f5 3c e6 a8 4a bc aa c9 30 bc 20 64 90 bb
       0.02990856 -0.01236937 -0.010790268 -0.004406467
0000e0 1c b5 20 bc f8 00 50 3c d0 e4 95 3c be a1 45 ba
       -0.009808805 0.0126955435 0.018297583 -0.0007539055
0000f0 54 7a e4 3b bc 59 87 3a f8 bf 9f bc 6d 0f 19 3c
       0.0069725905 0.0010326426 -0.019500718 0.009342057
000100 2b e3 14 bc 2c df a5 bc 6e 1a ab 3b d2 2c df 39
       -0.009087364 -0.020248018 0.0052216565 0.00042567268
000110 09 94 b4 3c b8 d4 8d bc fa 71 c1 bc ea 77 10 bb
       0.022043245 -0.017313346 -0.023613919 -0.002204413
000120 c3 f9 79 3c ac 66 85 3c 76 ad 85 bb e9 b9 f6 bc
       0.015257302 0.01628431 -0.004079516 -0.030117946
000130 e0 61 1f 3c af 6f 82 bb a5 6c b6 bc f4 91 27 bc
       0.009727925 -0.003980599 -0.022268603 -0.010227669
000140 d1 4d 0a 3c fb a0 8b 3c a5 5b f8 3a 8e 35 66 bc
       0.008441404 0.017044535 0.0018948211 -0.014050854
000150 ec d6 0e bb d4 67 1f 3c ea 95 88 bc 45 75 53 3b
       -0.0021795584 0.009729344 -0.016673047 0.0032265943
000160 4a dc a0 bb 27 b5 02 3d 6c b0 2b 3b 12 b5 07 bc
       -0.004909073 0.03191104 0.0026197685 -0.008282917
000170 a5 a6 9f 3c b1 b9 14 3c 44 c9 67 bc d0 0d 62 bc
       0.019488642 0.009077475 -0.014147107 -0.0137972385
000180 a2 d4 40 bc f7 62 ba bb 34 98 4d bb ad 28 8e bc
       -0.011769446 -0.005688067 -0.0031371238 -0.01735338
000190 55 93 52 3a b6 6b 36 bc 59 9d 82 bc ce 3f 4b bb
       0.00080328184 -0.011134079 -0.01594417 -0.0031013372
0001a0 87 00 74 bc 24 b6 1d 3c 5b 18 75 bb cb 45 2c 3a
       -0.014892704 0.009625945 -0.003739855 0.0006571679
0001b0 81 95 3d bb b3 ff a2 3c fe 30 0f bc 36 49 8b bc
       -0.0028928223 0.019897318 -0.008739708 -0.017002683
0001c0 55 f0 95 bc 17 9a 2d 39 ee 30 0d bc 2f 71 df bc
       -0.018303076 0.00016555969 -0.008617623 -0.02727565
0001d0 58 f7 8e 3c 68 fb aa 3a c9 c0 3d bc a5 d0 de 3b
       0.017451927 0.0013044896 -0.011581608 0.0067997747
0001e0 ea e0 7f 3c c3 ff d2 3b ab f3 8f bb 3c b5 75 3c
       0.015617589 0.0064391806 -0.004393061 0.014996823
0001f0 8f 0f 92 3c 5b 9b ca 39 c3 ce fd 3b ff 2f af bc
       0.017829685 0.0003864419 0.007745595 -0.021385191
000200 b2 77 a9 3c b3 e4 6a bc e7 05 53 3c 71 5e fe 3b
       0.020686958 -0.014336753 0.012879825 0.007762723
000210 22 b4 c5 b9 ec 6f 1d 3c a1 01 6f bb 0a 66 22 bc
       -0.00037708977 0.009609204 -0.0036469477 -0.009912023
000220 4c ac b2 bb cd ec 5a 39 6f ff 05 bc 7a 2c 32 bb
       -0.0054526683 0.00020878315 -0.008178576 -0.0027187155
000230 7c 73 48 3c a6 e6 a5 3a 5a d6 d9 bc 2f d4 8c bc
       0.012234565 0.001265724 -0.026591469 -0.01719102
000240 03 98 ab 3b e4 9d a1 bb 8c 10 ca bc c0 01 03 3a
       0.005236627 -0.004932152 -0.024666093 0.0004997514
000250 7b 31 d1 3b 46 31 89 3c 81 ed f7 3b 2b 26 52 ba
       0.0063840724 0.016747128 0.0075661545 -0.0008016552
000260 f6 b7 e6 3c ea f2 46 bb 57 2c ad 3c c4 86 9d 3c
       0.028163891 -0.003035719 0.021139307 0.0192293
000270 9b b0 e0 bb 66 1f 46 bc db 96 90 3c 70 cf 79 3c
       -0.0068569905 -0.012092447 0.017650058 0.015247211
000280 7c 21 d4 bb 86 7b ec bb 5b b9 2d bc 50 34 09 bc
       -0.006473718 -0.0072168736 -0.010603274 -0.008374289
000290 ee c4 94 3a 02 44 99 3c 07 0f aa bb f8 04 90 3c
       0.0011350194 0.018709186 -0.0051897797 0.017580494
0002a0 a3 4c a8 3c b8 8f 2f bb f2 f6 0f bc c1 42 3f 3c
       0.020544356 -0.0026788544 -0.008786904 0.01167363
0002b0 ca 60 20 3c 8d fd 2e 3c 20 1d f4 3a e7 ea 61 3c
       0.009788701 0.010680568 0.0018624403 0.013788915
0002c0 3c c5 42 38 1f 11 bc 3c b5 d6 10 3c 04 00 9b bc
       4.6436893e-05 0.022957383 0.008840253 -0.018920906
0002d0 14 1d 1b bc 65 69 00 3c 89 4c c0 bb 35 49 90 3b
       -0.009467382 0.007837628 -0.0058684987 0.004403258
0002e0 42 b4 a5 bc 51 f4 22 3c 56 61 1d 3c 75 b8 cb ba
       -0.020227555 0.009945945 0.009605726 -0.0015542643
0002f0 6c 8c a1 bc 30 33 98 bb 8a 84 64 bb a5 47 77 3c
       -0.019720279 -0.004644774 -0.0034869038 0.015092765
000300 78 b9 43 b9 7a a3 0e bd 31 0d 96 3c 9a 4c a7 3c
       -0.00018665742 -0.034823872 0.018316837 0.020422269
000310 74 cd 52 bc 65 b9 38 bb 9f 00 a9 bb b3 32 6c 3c
       -0.012866367 -0.0028186676 -0.0051575447 0.0144163845
000320 02 1a b4 bc d3 3c 88 bb 6a f2 ba 3c 1d 9c 52 3c
       -0.021985058 -0.0041576414 0.02282067 0.012854603
000330 71 94 b6 bc 32 23 85 3c bf b6 6a bc aa 54 81 3c
       -0.02228758 0.016252134 -0.014325797 0.015787441
000340 43 29 98 3b 42 09 4c 3c a6 43 d6 3a e1 8d 88 bb
       0.0046435907 0.012453379 0.0016347065 -0.004167304
000350 d8 5a f0 ba b4 c6 2a 3c 6b 5a 37 3a ae 83 8e 3c
       -0.001833762 0.010423351 0.00069943693 0.017396774
000360 c1 0f 8d b9 7d e8 43 3c 15 eb 0e bc 09 32 2b 3c
       -0.00026905353 0.011957285 -0.00872304 0.010448941
000370 c1 c5 6b 3c 00 3d 8e 3c 59 1b 52 bc 96 c7 6d 3a
       0.01439041 0.017363071 -0.012823903 0.0009070573
000380 5b c9 95 bb 7e 38 8b bc 73 10 4f bc 58 bb 59 3c
       -0.0045711226 -0.016994711 -0.012638199 0.013289295
000390 28 53 81 bc 84 f2 c6 bb 34 2c 7c 3c b1 81 0e bd
       -0.015786722 -0.0060713906 0.015391398 -0.034791652
0003a0 b9 72 ae bc 0a 65 bf 3b ff 90 82 bb 65 13 32 bc
       -0.021294938 0.005840902 -0.00398457 -0.010868882
0003b0 eb b7 7b 3c c1 f6 10 bc 38 ad a0 3c 5a ae 8c bc
       0.015363674 -0.008847893 0.019613847 -0.017172981
0003c0 71 7d ef 3b 2e 41 b9 bc a6 a7 21 b9 65 2a ad bc
       0.007308655 -0.022614088 -0.0001541661 -0.02113838
0003d0 e1 40 95 bb 49 7c 42 bb 80 6b 05 bd 8b 2e 73 bc
       -0.0045548533 -0.002967613 -0.032573223 -0.01484264
0003e0 37 83 67 3c c1 b2 60 bc 24 ea 2b bc f0 b4 34 bc
       0.014130405 -0.013714493 -0.010492835 -0.011029467
0003f0 dc 16 79 3c b9 32 31 bb d5 a9 4b 3b 4c 03 ae 3b
       0.015203204 -0.002703829 0.003107657 0.0053104516

model.layers.27.self_attn.q_proj.lora_b f4 [8, 3584]
000000 e9 91 c2 bb 3d a0 48 bb c9 e5 5e 3c df 3c 5c b9
       -0.005937804 -0.0030613088 0.01360459 -0.00021003511
000010 e1 ff bc 3a f3 ba fb 39 9f 78 50 bc 8a 1d 19 bc
       0.001441952 0.0004801374 -0.012724071 -0.009345422
000020 83 ad ee 39 1a 1d 6f 3c 49 78 44 bb 8f a8 ff ba
       0.00045524174 0.014594341 -0.0029978922 -0.001950519
000030 0a dd df 39 c5 c8 d2 ba c9 d9 20 3c 05 da eb bb
       0.0004269856 -0.0016081562 0.009817549 -0.007197621
000040 4a 8a ea 3b fe f2 18 bc ba ff 6a 3c 23 6e 5e 3c
       0.0071575986 -0.009335278 0.0143431965 0.013576063
000050 3b 82 8e 3b 3a d3 6c 3b 9d 1f b3 3a 90 fa d7 3b
       0.004349021 0.0036136643 0.0013666038 0.0065911487
000060 8e f0 53 b9 db 26 da bb d2 11 94 bb 48 d0 cc ba
       -0.00020212142 -0.006657464 -0.004518726 -0.0015626037
000070 bc be 0d bb d6 49 21 bc 2e fc e3 bb e3 0f 09 3c
       -0.002162858 -0.009844264 -0.0069575524 0.008365604
000080 1e 4c 97 bb 63 e4 b4 b9 0c c5 d1 3b 15 8f 56 bb
       -0.004617228 -0.00034502437 0.0064016636 -0.0032739092
000090 36 99 4c bb 9b e8 1d ba 97 8c 4b bb 90 bc c9 3b
       -0.003121925 -0.00060237356 -0.003105914 0.0061565116
0000a0 2a 66 90 3b 69 00 95 3a c5 29 23 3b 6f a9 88 39
       0.00440671 0.001136792 0.0024896723 0.0002606618
0000b0 cb 91 48 3b 28 bd 4c 3c ca ae 5d 3b 27 45 d6 ba
       0.0030604478 0.01249627 0.0033826106 -0.0016347513
0000c0 81 b7 de 3b 52 5c 1b bc 3a e7 2b 3c bf d7 7f 3a
       0.0067967777 -0.00948246 0.01049214 0.00097596267
0000d0 17 76 ff 3b 58 43 06 ba 8c 66 77 bb 43 fe 6e 3b
       0.00779606 -0.00051217293 -0.0037750332 0.003646747
0000e0 80 57 aa 3b 43 f3 0e bc 08 a4 ca 3b ee ec de bb
       0.005198419 -0.00872499 0.006184105 -0.0068031466
0000f0 82 8f 02 3c 46 56 07 bc f0 f7 30 bb d0 22 25 bc
       0.007968785 -0.008260315 -0.002700325 -0.010079101
000100 47 a8 78 bc f5 1a 08 3c 9f 8b 6c bc d3 0c 71 3c
       -0.015176839 0.008307208 -0.014437585 0.01471253
000110 74 76 19 bc df c8 d2 b8 38 64 4a 3b 07 76 3f bb
       -0.00936662 -0.000100509955 0.003088249 -0.0029214637
000120 ed 35 97 3c aa 19 1d 3c c5 93 7e b9 05 a3 9b 3a
       0.018458331 0.009588638 -0.00024278376 0.0011874145
000130 f6 52 63 bb c2 50 c7 bb 95 b1 0e 3b e3 4a 5e 3c
       -0.00346869 -0.006082625 0.0021773328 0.013567659
000140 03 a1 d6 bb 2a dc 6e 3b 56 77 ad bb 03 e1 b2 3a
       -0.006549956 0.0036447146 -0.005293767 0.0013647381
000150 7c 74 ae bb f8 0f b7 3b fc 9f ef 3b 17 53 23 3c
       -0.0053239446 0.0055866204 0.007312773 0.009968541
000160 77 62 cc bb 29 72 bc 38 b4 e1 26 b9 d8 46 2f bb
       -0.006237324 8.9858026e-05 -0.00015915075 -0.0026745107
000170 20 6b 55 ba 7a 9c 89 ba ea 21 5f 3c c6 17 fe 3b
       -0.0008141268 -0.0010498904 0.013618926 0.007754299
000180 e9 c0 ed ba 8f db 1f 3c fd d8 dd ba ae fb e6 3a
       -0.0018139157 0.009756937 -0.001692563 0.0017622614
000190 24 1d 31 bc d2 b3 76 bc fa 23 05 b9 e0 b0 35 bc
       -0.01081017 -0.015057521 -0.0001269727 -0.011089534
0001a0 f3 65 a9 39 1d d0 91 bc 7f 31 05 3b d4 d2 8b ba
       0.0003231015 -0.017799431 0.0020323691 -0.001066769
0001b0 96 4a 24 3a 9b 20 96 3b 5d 9a 23 bb 5d 3d 8e 3b
       0.00062672177 0.0045815236 -0.0024963834 0.004340811
0001c0 1a ee 92 bb 29 88 c0 bb 6f 68 17 bc cc ee 02 3c
       -0.0044839503 -0.0058756066 -0.0092412075 0.007991504
0001d0 97 9a 93 3b 46 f5 8d bb 11 36 fc bb a6 ef d1 bb
       0.0045045125 -0.0043322174 -0.007696875 -0.006406742
0001e0 fc 07 85 3b 3b 99 64 3b 0a 55 13 bc 7c d0 f3 ba
       0.0040597897 0.0034881372 -0.008992443 -0.0018601562
0001f0 4f 8b d2 3b 8d fd 54 bb 26 4c 4b 3b 14 f3 5f 3b
       0.0064252983 -0.003249976 0.003102073 0.0034171985
000200 be e4 8d ba 80 23 9e bb c2 97 c0 3a e9 64 25 3c
       -0.0010825617 -0.0048260093 0.0014693665 0.01009486
000210 8e 98 16 3c 44 48 8d ba fb 1f 87 3b 9b 00 32 bc
       0.009191645 -0.0010778983 0.0041236854 -0.010864402
000220 8e d9 11 bc c5 db 19 3b 45 59 1d bb 54 c3 83 3c
       -0.008901967 0.002347694 -0.0024009508 0.01608435
000230 a2 54 f1 bb 01 ac 07 bc cd 91 4f 3b 11 0d f6 3a
       -0.0073648253 -0.008280755 0.0031672597 0.0018772205
000240 90 98 0e bc 47 11 46 3b 8a b7 04 bb 83 23 80 bb
       -0.008703366 0.00302227 -0.0020251 -0.0039104833
000250 03 93 81 ba 10 26 26 3c 98 b9 b7 bb c5 e9 04 bb
       -0.0009885732 0.010140911 -0.0056068413 -0.002028094
000260 ee 20 b1 3b 65 b7 2e 3c 0e 93 12 bb 7a 03 1d bc
       0.005405537 0.010663842 -0.0022365483 -0.009583348
000270 0d 30 36 3b a5 6e be bb ad f7 c8 3b 5b 96 6a 3b
       0.0027799637 -0.0058115297 0.006133041 0.0035795185
000280 a2 c8 76 bb 16 c5 95 bb e1 21 83 3b 39 15 37 bb
       -0.0037656208 -0.0045706136 0.0040018414 -0.0027936234
000290 79 7b 0e 3a 59 f4 30 3b f7 90 81 3b 11 d6 65 3b
       0.0005435269 0.0027001111 0.0039540487 0.003507022
0002a0 79 72 1c ba eb 1a 6c bb 69 ce 99 ba 06 74 e6 ba
       -0.00059679855 -0.0036026787 -0.0011734489 -0.0017582185
0002b0 ec 1c e9 3b fe 58 52 bb 88 25 0a bc 1a 10 12 bc
       0.0071140435 -0.00320965 -0.0084318 -0.008914972
0002c0 78 5c 66 ba 14 d6 f1 3b cb e3 2c 3c d7 25 2e 3c
       -0.00087875826 0.0073802564 0.010552357 0.010629139
0002d0 d7 4c 1d 3b 1c c1 fa bb ce 22 14 bc d7 43 ca 3b
       0.00240021 -0.007652415 -0.009041501 0.006172638
0002e0 fd 37 00 bc 5e 96 f5 3b 62 39 a1 3b d9 1a ea 3b
       -0.007825849 0.007494732 0.0049201706 0.007144314
0002f0 95 06 97 bb e6 9e 36 3c 21 e7 a4 3b 2d 28 f3 3b
       -0.004608939 0.011146283 0.0050324355 0.007420561
000300 df dc 8c ba 9b ea f9 bb 41 f1 85 3c fd b5 41 3c
       -0.0010746977 -0.007626844 0.01635039 0.011823175
000310 57 6d 08 3c bc d3 6f bc 5a df 12 bc b1 00 74 bc
       0.00832685 -0.014637884 -0.008964384 -0.014892743
000320 2f da 1c 3c a5 2b 4d bc 76 7d 56 bb b1 1a a4 b9
       0.009573503 -0.012522613 -0.003272859 -0.00031300404
000330 c0 8c 1d ba 20 2e 1e 3c 80 b9 9c 3b 7b 81 05 3c
       -0.0006010048 0.009654552 0.0047828555 0.008148546
000340 32 57 2d bb 4c de 78 ba 7e 71 22 bc 56 85 8d 3c
       -0.0026449678 -0.0009493574 -0.009914754 0.017275494
000350 7e b8 9d 3b 4a c9 be 3b 14 18 10 3b e2 ce 22 3b
       0.004813253 0.0058223354 0.0021987008 0.002484255
000360 63 c6 1f ba ac 3a 3b bb bd b2 13 bc c5 21 3b 3a
       -0.00060949306 -0.0028568907 -0.0090147825 0.0007138516
000370 b1 a4 47 3a 10 19 11 bc 04 c0 92 3b 73 2f ab ba
       0.00076157885 -0.008856073 0.0044784565 -0.0013060406
000380 a2 24 c9 bb fa 53 c5 3b 77 da 75 39 a6 03 7d 3a
       -0.0061384 0.0060219737 0.00023446405 0.0009651728
000390 0d 69 07 bc f0 3e eb 3b 1b 3f 3c bb b9 31 95 ba
       -0.008264792 0.0071791336 -0.0028724137 -0.0011382616
0003a0 85 9d 3c bb 92 21 14 37 b7 85 f8 3a d2 16 18 3c
       -0.0028780412 8.829304e-06 0.0018960749 0.009282785
0003b0 74 58 68 bb dc 82 a8 bb 10 9d 49 b9 c6 2c 05 3b
       -0.0035453113 -0.005142553 -0.00019227364 0.0020320877
0003c0 f9 a0 c0 ba d7 45 62 3a 32 34 e7 bb 55 2f 27 3b
       -0.0014696411 0.0008631623 -0.0070557827 0.002551039
0003d0 b1 e6 bf bb d6 0e 83 3b 70 52 a4 ba 5e 30 69 3b
       -0.005856358 0.0039995713 -0.0012536775 0.0035581808
0003e0 14 b6 06 bc ba 0c 93 3b 46 e7 1c 3b 00 0b 14 bc
       -0.008222122 0.004487601 0.002394156 -0.009035826
0003f0 ee e6 10 ba c7 c6 82 3b a3 5d 08 3c e3 38 28 bc
       -0.0005527575 0.0039909813 0.008323106 -0.010267469
