gemma_7b_patch_adapters/0000200_adapters.safetensors (safetensors, 459200 bytes, 4 tensors)

model.layers.27.self_attn.q_proj.lora_a f4 [3072, 8]
0	0xbc3117ae	-0.010808868
1	0xbc294d41	-0.01033336
2	0xbb415a35	-0.002950323
3	0x3b826b46	0.003980073
4	0xbc932991	-0.017964156
5	0x3c1745cc	0.009232949
6	0x3bc6294f	0.006047405
7	0xbb706de8	-0.0036686603
8	0x3b4de645	0.003141777
9	0x3c33a009	0.010963448
10	0x3ba56365	0.005047249
11	0xbc131fc9	-0.008979746
12	0x3bfff85b	0.0078115887
13	0xbbe4d1b5	-0.006983007
14	0x3a4b5ece	0.00077579624
15	0xbbfd3da8	-0.0077282973
16	0xbc474a74	-0.012163747
17	0xbb3bb382	-0.002864093
18	0x3afbeb9f	0.0019220001
19	0x3c294e72	0.010333644
20	0xbc858b66	-0.016301822
21	0xbc08dd30	-0.008353516
22	0xbb33e84a	-0.0027451687
23	0xbcbf325a	-0.02333944
24	0x3c4c4c4c	0.0124693625
25	0x3ba8f782	0.0051564584
26	0x3cb28f6b	0.021796903
27	0xbc25e5ea	-0.010125617
28	0x3a0141be	0.0004930756
29	0xbb06ea95	-0.00205866
30	0xbafe65ea	-0.0019409035
31	0x3c60f01f	0.013729124
32	0xbc37fd83	-0.0112298755
33	0xbc8c0f89	-0.017097251
34	0x3c646c18	0.013941787
35	0x3c1e4d80	0.009662032
36	0x3c235c02	0.009970667
37	0x3c9a2eb9	0.018821107
38	0xbcab7dec	-0.020934068
39	0xbbb7ded3	-0.0056112795
40	0x3ad28e27	0.0016064093
41	0x3c21301c	0.00983813
42	0xbc3e3179	-0.011608475
43	0xbc8912bf	-0.016732572
44	0xbc259308	-0.010105856
45	0x3c15929c	0.009129193
46	0x3b08be26	0.002086529
47	0x3bf670d2	0.0075207734
48	0x3c237f4d	0.009979081
49	0x399a74c7	0.00029460175
50	0xbbce723d	-0.0063002394
51	0xbb728e37	-0.0037011036
52	0x3c0d9c53	0.008643228
53	0xbc90a565	-0.017656991
54	0x3b9439af	0.004523478
55	0xbc1aebed	-0.009455663
56	0x3c423534	0.011853505
57	0xbb95f724	-0.0045765806
58	0x3ac5ccbd	0.0015090924
59	0x3c96372e	0.018336859
60	0x3ca225af	0.01979336
61	0x3cb9b56c	0.022669517
62	0xbc00ebd2	-0.007868724
63	0x3c191e27	0.009345568
64	0xbbe7c196	-0.007072638
65	0xbcb5f685	-0.022212276
66	0x3b2a2659	0.0025962798
67	0x3b9fb373	0.004873687
68	0x3c1820c9	0.00928516
69	0x3a752e78	0.00093529327
70	0x3c7ea43f	0.015542089
71	0x3c1605c8	0.009156652
72	0xbc70324e	-0.014660431
73	0xbb9ec0a5	-0.0048447424
74	0x3be5c55f	0.007012054
75	0x3cb3c45d	0.02194422
76	0x3b49e582	0.0030806963
77	0x3cb060ae	0.021530475
78	0xbc85c8ec	-0.016331159
79	0xbc8ced6f	-0.01720306
80	0xbc70b309	-0.014691123
81	0x3caa31af	0.020775644
82	0x3c30205f	0.010749905
83	0x3b988be4	0.004655348
84	0xba645c9b	-0.0008711309
85	0x3bc89181	0.006120861
86	0x3b160ebd	0.0022896968
87	0xbb970729	-0.004609008
88	0xbca635fb	-0.020289412
89	0xbc7fd667	-0.015615082
90	0x3c811216	0.015755694
91	0xbc3fe31f	-0.011711865
92	0xbc04f8b7	-0.008115939
93	0xbc963137	-0.018334014
94	0xba68e999	-0.00088849064
95	0xba9ced6c	-0.0011972613
96	0x3c335cf7	0.0109474575
97	0xbb4c5e25	-0.0031184044
98	0xbb36bef1	-0.0027884806
99	0x3bcc8216	0.0062410934
100	0xbbb2d2b2	-0.0054572457
101	0xbc68d610	-0.014211193
102	0xbb91e305	-0.0044521117
103	0xbc70ed2e	-0.014704986
104	0x3b75fcba	0.003753467
105	0x3c06a10e	0.008217109
106	0x3b2242d2	0.0024759066
107	0xbb68e976	-0.0035539544
108	0xbc039d3d	-0.008033094
109	0xbb9dec51	-0.004819431
110	0xbc8f976d	-0.01752826
111	0x3c8d4e1e	0.017249163
112	0x3b2efdbb	0.0026701528
113	0xbba12211	-0.004917391
114	0x3ca42f90	0.02004221
115	0x3c47112b	0.012150089
116	0x3c244b7c	0.0100277625
117	0xbb3977a1	-0.0028300064
118	0xbac11e0e	-0.0014733688
119	0x3c42d5e5	0.011891817
120	0x3b777a7a	0.003776221
121	0xbcaf1b71	-0.02137539
122	0x3bd592c8	0.006517742
123	0xbb1e8126	-0.0024185865
124	0x3af08719	0.0018350809
125	0xbc86a191	-0.016434463
126	0x3b4db438	0.0031387936
127	0xbb94b7d0	-0.0045385137
128	0xbb3d68f7	-0.0028901675
129	0x3c21251a	0.009835506
130	0xbbde5b6d	-0.006785801
131	0x3c1e7b28	0.009672917
132	0x3af8704b	0.0018954364
133	0xbbbaad70	-0.005696945
134	0xbc139523	-0.009007725
135	0xbc28d434	-0.010304499
136	0xbc2a669f	-0.010400443
137	0x3be6f343	0.007048042
138	0x3c4f0742	0.012636008
139	0xba0ea4c0	-0.000544142
140	0x3c61239a	0.013741398
141	0xbc22c6a9	-0.00993506
142	0xbc1730b2	-0.009227918
143	0x3cafede7	0.021475745
144	0x3c6f4fe5	0.014606451
145	0xb9bf9865	-0.00036543902
146	0xbcf31a60	-0.029675663
147	0xbc27bd1b	-0.010237957
148	0xbc7ea87b	-0.015543099
149	0x3c1d7056	0.0096093025
150	0x3b81bdd8	0.0039593987
151	0x3bb2d798	0.0054578297
152	0xbc145c47	-0.009055204
153	0xbbbd48bc	-0.005776493
154	0xbc6aa4aa	-0.0143214855
155	0xbbf389a3	-0.007432179
156	0x3c0be1fa	0.008537764
157	0x3cada40a	0.021196384
158	0xbbdf6af7	-0.006818171
159	0xbb784e38	-0.003788842
160	0xbb4e0539	-0.0031436218
161	0x3bf879ad	0.0075828643
162	0xbbbe5e51	-0.0058095832
163	0xbc82aaa4	-0.015950508
164	0xbb19e96f	-0.0023485085
165	0xbc6ac2a4	-0.0143286325
166	0x3b0dedc0	0.0021656603
167	0xbc1f866c	-0.0097366385
168	0x3a0b6cd6	0.0005318647
169	0xbc1e9faf	-0.009681626
170	0xba365dd7	-0.0006956732
171	0xbc9ecc22	-0.019384447
172	0xbc358b2b	-0.0110805435
173	0xbb532720	-0.0032219365
174	0x3c5ef3dc	0.013607945
175	0xbbbab70a	-0.0056980895
176	0xbc168856	-0.009187778
177	0xbc8ccccc	-0.017187499
178	0x3bd138e1	0.0063849543
179	0xbc2b48e8	-0.010454394
180	0x3bfe7c9a	0.0077663185
181	0xbb67b4b0	-0.00353555
182	0xbbc01cc0	-0.0058628023
183	0xbbce21c2	-0.0062906453
184	0xbc0f9a77	-0.008764855
185	0xbc0cd26b	-0.008595089
186	0x3bd1509b	0.0063877827
187	0x3ca431e8	0.020043328
188	0xbbda2940	-0.0066577494
189	0x3ccc5665	0.02494354
190	0x3ca41ccb	0.02003326
191	0x39db55fc	0.00041834998
192	0x3c177527	0.00924424
193	0x3c7b08a7	0.015321887
194	0xbc211ee0	-0.009834021
195	0x3cb4939e	0.022043046
196	0xbc574282	-0.013138415
197	0x3ca4b55e	0.020106014
198	0xbb2ddb17	-0.0026528293
199	0x3c1863f2	0.009301173
200	0xbb4c7bd2	-0.0031201732
201	0xbc53539a	-0.01289835
202	0x3ccc608a	0.024948377
203	0x3cdefd7b	0.027220478
204	0xbc5e067b	-0.01355135
205	0x3c9d2f07	0.019187463
206	0x3c7c0e72	0.015384303
207	0xbc9af2f8	-0.018914685
208	0xba63f569	-0.0008695932
209	0x3bacacbb	0.0052696145
210	0x3c692808	0.014230736
211	0x3c4f93a3	0.012669477
212	0x3bb83099	0.0056210277
213	0xbb461635	-0.0030225639
214	0x3b01af82	0.0019788449
215	0xbc8e8a90	-0.017400056
216	0x3c8e9e50	0.017409474
217	0x3c682c20	0.0141706765
218	0xbcb32de7	-0.021872474
219	0x3ade4c27	0.0016959951
220	0x3ad72e24	0.0016416949
221	0x3bf169a5	0.00736733
222	0x3bd7a552	0.006580987
223	0x3c98d858	0.018657848
224	0xbc0f1e3a	-0.008735234
225	0x3c56ffb6	0.01312249
226	0xbc87f2fc	-0.016595356
227	0xbbfcc477	-0.00771385
228	0xba8f447a	-0.0010930442
229	0xbc6b3b9a	-0.014357472
230	0x3c2bdbe6	0.01048944
231	0xbc8db41b	-0.017297795
232	0x3a602711	0.0008550743
233	0x3bc99b5b	0.006152553
234	0x3c660cc5	0.01404113
235	0xbc8cb32c	-0.01717528
236	0xbbd1dd96	-0.006404589
237	0xbb37acc9	-0.0028026572
238	0x3cbc371c	0.022975497
239	0xbc506379	-0.012719029
240	0xbc6b48dc	-0.014360633
241	0xbbbf6b7c	-0.0058416706
242	0xbbc54231	-0.0060198535
243	0x3c554e8c	0.013019215
244	0x3bbd7b4e	0.0057825213
245	0x3c205c06	0.009787565
246	0x3bb58bc1	0.0055403416
247	0xbc199c94	-0.00937571
248	0xbcef9d31	-0.02924976
249	0x3cb49112	0.022041831
250	0xbcd6f27a	-0.026238669
251	0x3a947bdb	0.0011328416
252	0xbc705d66	-0.014670705
253	0x3bbada1a	0.0057022693
254	0xbc07966d	-0.00827561
255	0xbc861f24	-0.01637227

model.layers.27.self_attn.q_proj.lora_b f4 [8, 4096]
0	0x3b45eaec	0.0030199839
1	0x3bd6f3a6	0.006559807
2	0xbb38b746	-0.0028185411
3	0x3b68ed68	0.0035541896
4	0x3c0f3884	0.008741502
5	0xbb8819e7	-0.0041534784
6	0xbbe7dd54	-0.007075945
7	0x3c6b8c63	0.0143767325
8	0xbbae9707	-0.0053280625
9	0x3b87038e	0.004120297
10	0xba04cb16	-0.00050656626
11	0xbb683ece	-0.0035437825
12	0xbbee159f	-0.007265761
13	0xbb4b630b	-0.0031034376
14	0xba74a99f	-0.0009333137
15	0xbc13ac2f	-0.00901322
16	0xbc0badaa	-0.008525291
17	0x3c6c5751	0.014425115
18	0xbb29c5cc	-0.002590525
19	0xbc530f5b	-0.012882079
20	0x3c1ea39c	0.009682562
21	0x3c3d8598	0.011567496
22	0x3b44bb45	0.0030018848
23	0x39db02ae	0.00041772932
24	0x3b1178e5	0.0022197303
25	0xbbd43b0e	-0.0064767664
26	0x3c5dadd2	0.0135302115
27	0x3a730105	0.0009269866
28	0x3abaeaf0	0.0014260691
29	0xbc13ec33	-0.009028482
30	0x3c16b20c	0.009197723
31	0x3b1ac2f9	0.0023614748
32	0xbc38ea61	-0.011286349
33	0x3c29cf2e	0.010364337
34	0x3b1c3745	0.0023836654
35	0x3bb87b50	0.0056299344
36	0xbbeb79b1	-0.0071861376
37	0xbb6ba27b	-0.0035955
38	0x3b9d04e5	0.0047918432
39	0xbbe09e91	-0.00685484
40	0x398f6dc2	0.0002735686
41	0x3c487786	0.012235528
42	0x3b3e7b43	0.002906517
43	0x3b882850	0.0041551962
44	0x3c953be6	0.018217038
45	0xba9d1ac6	-0.0011986129
46	0x3b9a0d0c	0.0047012623
47	0x3c8460ac	0.016159378
48	0x3b298fa7	0.0025872977
49	0xbbf9de67	-0.0076253894
50	0xbb4ea8d8	-0.0031533744
51	0x3c2a4890	0.010393277
52	0x3b924936	0.004464294
53	0x3c0f2340	0.008736432
54	0xbc33d58b	-0.010976206
55	0x3afa4358	0.0019093556
56	0x3b35ceb3	0.002774161
57	0x3adf284e	0.0017025562
58	0x3c55b7fc	0.013044354
59	0x3b9ff155	0.004881064
60	0x3ba88c14	0.0051436517
61	0xbb25fa05	-0.0025326025
62	0x3b8c869d	0.004288508
63	0x3be05236	0.006845738
64	0xbc848eba	-0.016181339
65	0xbbaf8de9	-0.005357493
66	0xbc3444b5	-0.011002709
67	0x3b972365	0.0046123737
68	0x3c200b75	0.009768357
69	0x3c2fa13b	0.010719593
70	0xbc8f9850	-0.017528683
71	0xba1ff7b8	-0.00061022816
72	0xbb6dadb2	-0.003626686
73	0xbc8d9490	-0.017282754
74	0xbbc591d8	-0.006029349
75	0x3bbf6eca	0.0058420645
76	0xbba893b1	-0.0051445593
77	0xbc3ee1d4	-0.011650521
78	0xbc390dfd	-0.011294839
79	0x3b38eafe	0.0028216238
80	0x3aaf866a	0.0013391499
81	0x384a28b4	4.819846e-05
82	0x3a872428	0.0010310458
83	0x3c123a91	0.008925096
84	0xbbe6fd8f	-0.0070492695
85	0xb9292729	-0.00016131684
86	0xbc8b3516	-0.016993087
87	0x3b6822f6	0.003542123
88	0xbc55b598	-0.013043784
89	0xbc2f7327	-0.010708607
90	0xba81fca0	-0.0009917207
91	0xbc006aed	-0.007837993
92	0xbc577532	-0.0131505
93	0xbb21b63c	-0.002467527
94	0xbb4ce6d6	-0.0031265519
95	0x3a82b046	0.0009970746
96	0xb9f0674f	-0.00045853338
97	0x3b03d8e6	0.0020118295
98	0xbc156387	-0.009117967
99	0xbb87cb1b	-0.004144085
100	0xbc1cb24a	-0.009563992
101	0xbc085f71	-0.008323536
102	0x3c16a826	0.009195363
103	0x3c037e49	0.008025714
104	0xbb6be5de	-0.0035995166
105	0xbb8740ed	-0.004127613
106	0xbbfe1a6e	-0.0077546155
107	0xbb997676	-0.004683311
108	0xbb1fdf6f	-0.0024394651
109	0xbb258fbc	-0.0025262674
110	0x3c161f42	0.009162726
111	0xbbe70ab8	-0.0070508383
112	0xbbea1490	-0.0071435645
113	0x393a6f95	0.0001777991
114	0x3c37ca16	0.011217615
115	0xba4690d7	-0.00075746834
116	0xbba06b2c	-0.0048955884
117	0xbb15e655	-0.0022872884
118	0x3baf7c92	0.005355426
119	0x3bf1b6a1	0.0073765074
120	0x3bd5fb3e	0.0065301945
121	0xba8fe57d	-0.0010978427
122	0xba380da3	-0.0007021075
123	0x3b834e9a	0.004007173
124	0x3b5a51ef	0.0033312996
125	0x3c2b4960	0.010454506
126	0xbc27cb18	-0.010241292
127	0xbb721367	-0.0036937834
128	0xba8136a6	-0.0009858205
129	0xbc0609d9	-0.008181059
130	0x3be2b392	0.006918379
131	0x3b21f11e	0.0024710367
132	0xbb528ca9	-0.0032127297
133	0xbc0a84d3	-0.008454519
134	0x3be49b0d	0.0069764913
135	0x3b799830	0.0038085096
136	0xbbce5b99	-0.0062975404
137	0xbbd5be6b	-0.0065229437
138	0x3b3038d4	0.002688934
139	0xbc8192d2	-0.01581708
140	0x3bcd966a	0.0062740343
141	0xbc4cbd07	-0.0124962395
142	0x3bc138da	0.00589667
143	0xbbd2ba18	-0.0064308755
144	0xbba04245	-0.0048907124
145	0xbb54dadc	-0.0032479083
146	0xbbb1729d	-0.0054152743
147	0x3a8bacfe	0.0010656414
148	0x3be513f6	0.006990905
149	0xbbb176b1	-0.0054157604
150	0xbc512fae	-0.012767715
151	0xbb0bd741	-0.0021338018
152	0x39c7bf77	0.0003809889
153	0x3be808bd	0.00708112
154	0xbb825f54	-0.003978649
155	0x39ff7034	0.00048720988
156	0x3c0bd184	0.008533839
157	0xb77cadb2	-1.5060812e-05
158	0xbc171447	-0.009221143
159	0xba842817	-0.0010082748
160	0x3c0ed233	0.008717108
161	0xbb014497	-0.001972472
162	0xb9ca7dde	-0.0003862222
163	0xb9b26167	-0.00034023376
164	0xbbf12194	-0.007358739
165	0xbc469b62	-0.012122007
166	0x3c2dfe0e	0.010619653
167	0x3bb5ffc0	0.0055541694
168	0x3b8316cc	0.0040005203
169	0xbb7bcc3c	-0.0038421294
170	0xbb2574e3	-0.0025246672
171	0xbb2e923d	-0.0026637458
172	0x3bcbc885	0.006218972
173	0xba5110e7	-0.0007975236
174	0x3b953891	0.0045538624
175	0x3b9ef3a2	0.0048508206
176	0xba1f87df	-0.0006085615
177	0xba9bda0d	-0.0011890546
178	0x3c2cb34e	0.010540796
179	0xbbdef358	-0.006803911
180	0xbc2442be	-0.010025678
181	0x3b79b1d4	0.0038100379
182	0x3c2a6f13	0.010402459
183	0x3b670590	0.0035251118
184	0xbc000178	-0.00781285
185	0x3b1f043a	0.0024263994
186	0x3b94b463	0.0045381053
187	0xbbcb7393	-0.006208846
188	0xbbf447bb	-0.00745484
189	0xbb0ef65c	-0.0021814322
190	0xbc2ee65f	-0.010675042
191	0x3c6cffa4	0.014465246
192	0xbc8872ca	-0.016656298
193	0x3bafbe3b	0.0053632534
194	0x3a1cccc0	0.0005981438
195	0x3c361e5e	0.011115639
196	0xba94d10f	-0.0011353808
197	0xbb3138f6	-0.0027042008
198	0x3c3a2ccd	0.01136322
199	0x3b351b57	0.0027634704
200	0x3c340ec3	0.010989848
201	0xbc7d08cb	-0.015443991
202	0xbb19c62d	-0.002346407
203	0x3c6d07a1	0.014467151
204	0xbad24286	-0.0016041554
205	0x3c2c362f	0.010510965
206	0x3b04bb8b	0.0020253386
207	0x3b902f76	0.004400189
208	0x3c83f0eb	0.01610609
209	0x3c016a37	0.007898859
210	0x3bb96efb	0.005658982
211	0xba810469	-0.0009843233
212	0xbc6b6334	-0.014366914
213	0xbbb8dd6d	-0.0056416304
214	0xbb5b5079	-0.0033464713
215	0x3b50f277	0.0031882802
216	0xbc76d552	-0.015065508
217	0x3b34010d	0.0027466447
218	0x3be30240	0.0069277585
219	0xbc138513	-0.009003895
220	0xbb5b1dfc	-0.003343462
221	0xbc2cff13	-0.010558861
222	0x3b3c9677	0.0028776207
223	0x3bebe714	0.0071991775
224	0xbbec1219	-0.007204306
225	0x3bed9815	0.0072507956
226	0xbb17378d	-0.0023073882
227	0xbc38b4c8	-0.01127357
228	0x3c06a91b	0.008219029
229	0x3c343124	0.010998044
230	0x3a83ff3b	0.0010070571
231	0x3b4c0f9b	0.0031137231
232	0x3c2932ca	0.01032705
233	0x3a954df5	0.0011391031
234	0x3be907c5	0.007111522
235	0x3a53e33d	0.00080828724
236	0xbc21e472	-0.009881126
237	0xbc22b1ba	-0.009930069
238	0x3b0ff3a6	0.0021965294
239	0xbc0f7eef	-0.008758291
240	0x3aeee9ab	0.0018227597
241	0xbb9a622c	-0.00471141
242	0x3c48c596	0.012254139
243	0x3b97c97c	0.004632173
244	0xbbe782a4	-0.007065134
245	0x3bc4abe3	0.006001936
246	0x3b82a81b	0.003987325
247	0xbc257c79	-0.010100477
248	0x3c093514	0.008374471
249	0xbb3e10f0	-0.0029001795
250	0xbc2cd530	-0.010548875
251	0x3bc9872c	0.006150147
252	0x3c20381b	0.009779002
253	0x3bd72ef9	0.006566879
254	0xbc10c72c	-0.008836549
255	0x3ac8dc7b	0.0015324497

model.layers.27.self_attn.v_proj.lora_a f4 [3072, 8]
0	0xbc197a35	-0.009367515
1	0x3c622df2	0.0138048995
2	0x3c53b880	0.012922406
3	0x3c47cd77	0.012194983
4	0x3b71811a	0.0036850632
5	0x38894627	6.545736e-05
6	0xbbf766b2	-0.007550084
7	0x3bd9aef9	0.006643173
8	0xbbc935e0	-0.0061404556
9	0x3bbdd7f6	0.005793567
10	0x3c71bca2	0.014754446
11	0x3c249b81	0.010046841
12	0x392b3139	0.00016326168
13	0xbc018d7d	-0.007907269
14	0xbc5da88c	-0.013528954
15	0x3c1bf247	0.009518213
16	0x3c07b7b5	0.008283545
17	0xbcc10570	-0.023562163
18	0xbc508118	-0.012726091
19	0xbc834d75	-0.016028145
20	0xbccfddb1	-0.025374265
21	0x3cc801b2	0.02441487
22	0xbb4ef336	-0.003157807
23	0x3c98b12d	0.018639171
24	0x3c6a7541	0.014310182
25	0x3bdccad0	0.0067380443
26	0xbbd681ee	-0.0065462505
27	0xbbf7e8cf	-0.0075655947
28	0xbc866a78	-0.01640819
29	0xbc3341e7	-0.010941005
30	0x3beb29b5	0.0071766027
31	0x3bcd3722	0.006262676
32	0xbc5fc404	-0.013657574
33	0xbbaf52d8	-0.005350452
34	0x3b69fb4e	0.0035702768
35	0x3b7226b7	0.0036949345
36	0xbb223210	-0.0024749078
37	0xbc767da4	-0.0150446035
38	0x3c16393e	0.009168921
39	0xbba28b2a	-0.0049604373
40	0x3b120bd4	0.0022284882
41	0x3ba02f1f	0.00488843
42	0x3b755c46	0.0037439032
43	0x3a987f5b	0.0011634635
44	0x3c50026e	0.012695892
45	0xbc681298	-0.014164589
46	0xbca666ba	-0.020312656
47	0x3be989bb	0.0071270145
48	0x3c660228	0.0140386
49	0x3a79e149	0.00095321663
50	0x3991cf79	0.00027811134
51	0x3a183b8c	0.0005807213
52	0xbaba0bd8	-0.0014194204
53	0x3c9a1229	0.018807488
54	0xbc269db0	-0.010169432
55	0xbb46d354	-0.0030338364
56	0xbc4012d6	-0.011723241
57	0xbb9733a2	-0.0046143094
58	0x39ac8001	0.00032901767
59	0xbc74346d	-0.014905077
60	0x3b906c4c	0.0044074412
61	0xbc93a302	-0.018022064
62	0xb9f558da	-0.0004679624
63	0xbc84728b	-0.0161679
64	0x3adbf7fb	0.0016782278
65	0x3c3408bd	0.0109884115
66	0xbc052b73	-0.008128035
67	0x3a0e25f0	0.0005422523
68	0xbb888f58	-0.0041674785
69	0xbc2dd712	-0.010610359
70	0x3b81a07b	0.0039558983
71	0xbbb6650a	-0.005566244
72	0xbc6ee7c0	-0.014581621
73	0xbc6e3cf9	-0.014540904
74	0x3c074ca5	0.00825802
75	0x3b0f2332	0.0021841046
76	0xbcaf9294	-0.021432199
77	0xbc11350b	-0.008862744
78	0xbcbcbdb9	-0.023039686
79	0xbcf12cc0	-0.029440284
80	0xbb9f3794	-0.0048589204
81	0xbcac68ab	-0.021046003
82	0x3c4ce6f2	0.0125062335
83	0x3c6f718f	0.014614477
84	0x3bd6ef18	0.006559264
85	0x3b8522ed	0.0040630014
86	0x3c5fcde5	0.013659929
87	0xbca5aa6d	-0.020222867
88	0x3b01224b	0.0019704278
89	0x3b85a1d0	0.0040781274
90	0x3ca4fdf2	0.020140622
91	0xbc200aad	-0.00976817
92	0xbc4c1ccd	-0.0124580385
93	0x3c07b1d4	0.008282144
94	0xbaf1cbc9	-0.0018447574
95	0x3c336f97	0.010951898
96	0x3a86bb88	0.0010279277
97	0xbbace417	-0.005276214
98	0x3badc855	0.0053034225
99	0xbb5f15b9	-0.0034040047
100	0x3bcbd844	0.006220849
101	0x3c868d1a	0.016424704
102	0x3a4b0553	0.0007744629
103	0x3bafb9fa	0.0053627463
104	0xb9920307	-0.00027849546
105	0xbbdc8140	-0.006729275
106	0xbc601419	-0.013676667
107	0x3ca10944	0.019657739
108	0xbcb27164	-0.021782584
109	0x3c883f94	0.016631879
110	0xbc9061a6	-0.017624687
111	0xbc11e30a	-0.008904228
112	0xbbaab12b	-0.0052091083
113	0xb93da98c	-0.00018087606
114	0xbbf48140	-0.007461697
115	0xbc82247f	-0.015886543
116	0x3b07ba35	0.0020710353
117	0x3bd388cd	0.006455517
118	0x3c1d20e7	0.009590364
119	0xbc7638b8	-0.015028171
120	0xbc947556	-0.018122356
121	0xba5316cd	-0.0008052409
122	0x3c8caf19	0.017173337
123	0x3c70052a	0.014649669
124	0xbc98769f	-0.01861125
125	0xbb251586	-0.002518983
126	0xbc34c10f	-0.011032357
127	0x3c838732	0.016055677
128	0xbc34967d	-0.011022207
129	0xbcad4f69	-0.02115603
130	0xbc6ebe6e	-0.014571769
131	0x3c7bcd88	0.015368827
132	0x3c41cf39	0.011829191
133	0x3bfc6cf1	0.0077034165
134	0xbc9265e6	-0.017870855
135	0x3c51847d	0.012787935
136	0x3c0e314d	0.008678746
137	0xba5de5a4	-0.00084647
138	0x3b32212b	0.0027180414
139	0xbc877dcb	-0.016539475
140	0x3c7f81ac	0.015594881
141	0x3c3a89c9	0.01138539
142	0x3af762e8	0.0018874081
143	0x3c2aaf31	0.010417745
144	0x3c45426f	0.012039765
145	0x3b15faad	0.002288501
146	0x3b685d00	0.0035455823
147	0x3c360e28	0.011111774
148	0xbad666bc	-0.0016357522
149	0xbc7a696e	-0.015283925
150	0xbb8a1126	-0.00421347
151	0xbc72bf90	-0.01481618
152	0x3b39c960	0.0028348789
153	0x3bdfcc2b	0.0068297586
154	0x3c7c5bd4	0.015402753
155	0xbb38559c	-0.00281272
156	0x3cf00680	0.029299974
157	0xbb9ca8ad	-0.00478085
158	0x3b86f077	0.004118021
159	0xbc1946c5	-0.009355252
160	0x3be0e40b	0.0068631223
161	0x3bca6884	0.00617701
162	0x3c807b41	0.015683772
163	0x3c465c26	0.012106931
164	0xbc26b1a3	-0.010174188
165	0xbc56e47c	-0.013115998
166	0xbc300450	-0.010743216
167	0x3c718fbe	0.014743743
168	0xbc0754c1	-0.008259953
169	0x3c4f626c	0.012657743
170	0xbb37f139	-0.0028067364
171	0x3c3d5654	0.011556227
172	0xbca68fbf	-0.020332215
173	0x3a6b1322	0.00089673896
174	0xba7c0e34	-0.00096151535
175	0xbc883d79	-0.016630875
176	0xbc441682	-0.011968257
177	0x3cde1442	0.027109269
178	0x3c37f301	0.01122737
179	0xbc0db3de	-0.008648841
180	0xbc98bd52	-0.018644962
181	0x3bc81e25	0.006107109
182	0xbad1183d	-0.0015952658
183	0xbc5e78c8	-0.013578601
184	0xbccbe180	-0.0248878
185	0xbcbb252c	-0.022844873
186	0xbc32d172	-0.0109141935
187	0xbb13310c	-0.0022459654
188	0x3bb99a17	0.005664121
189	0x3cbcc571	0.023043366
190	0x3c37032b	0.011170189
191	0xbbe9c223	-0.0071337386
192	0x3c118ba5	0.0088833915
193	0xbcb4c613	-0.022067105
194	0xbb3313a2	-0.0027324934
195	0x3c388bcd	0.0112638
196	0x3c6db8c2	0.014509382
197	0x3c68e247	0.014214105
198	0xbca2322d	-0.019799316
199	0xbc7ac0c8	-0.015304752
200	0x3bf18d53	0.0073715835
201	0x3b5151e9	0.0031939691
202	0xbadc2949	-0.0016796972
203	0xbc731190	-0.01483573
204	0x3c168f25	0.009189402
205	0x3c2f2693	0.010690349
206	0x3c6f9914	0.014623899
207	0xbbdfdc65	-0.006831693
208	0x3c425fbe	0.011863647
209	0x3aa027f1	0.0012218935
210	0xbc8d2351	-0.017228754
211	0x3a719217	0.00092151895
212	0x3a45f7a5	0.00075518555
213	0x3a3e68e7	0.00072635565
214	0x3bbe4289	0.0058062715
215	0x3c8e2c06	0.017354976
216	0x3c82d0f4	0.015968777
217	0x3c0418c7	0.008062548
218	0xbbad9b34	-0.0052980427
219	0x3c3ff9ce	0.011717273
220	0x3a33540e	0.0006840833
221	0xbb964165	-0.0045854324
222	0x3c2f3a7c	0.010695096
223	0x3ae60cfe	0.0017551479
224	0xbca7af0b	-0.02046921
225	0x3bcd2278	0.0062602125
226	0xbcc444ad	-0.023958528
227	0xb88b4bfb	-6.642189e-05
228	0x3c5f780b	0.01363946
229	0x3cc37caf	0.023863165
230	0xbac40957	-0.0014956397
231	0xbbab8a92	-0.0052350247
232	0x3b4102da	0.0029451163
233	0x3c2eac7c	0.010661241
234	0xbc1a4f12	-0.009418266
235	0x3be86cf4	0.0070930663
236	0xbc1e7889	-0.0096722925
237	0x3c4f1323	0.01263884
238	0x3c2c358c	0.010510813
239	0xbc5bf95a	-0.013426149
240	0x3c6a598e	0.014303578
241	0x3cb24e60	0.021765888
242	0xbb278ea0	-0.002556719
243	0x3be20cce	0.006898499
244	0xbc074a47	-0.008257455
245	0xbc47063c	-0.0121474825
246	0xbb9b1076	-0.004732187
247	0x3c76785c	0.015043344
248	0x3bd26cfb	0.006421683
249	0x3b3197ac	0.002709846
250	0xbccf2a79	-0.025288807
251	0xbb29f0fa	-0.0025930987
252	0xbc9e917e	-0.019356485
253	0xbc40c7f1	-0.01176642
254	0xbba7d3f4	-0.0051217023
255	0x3c4ac21d	0.012375382

model.layers.27.self_attn.v_proj.lora_b f4 [8, 4096]
0	0xbb9698a0	-0.004595831
1	0x3aa07b52	0.0012243784
2	0x3be6561d	0.0070293085
3	0x3bd36998	0.0064517967
4	0xbc1b3189	-0.009472259
5	0x3bba3a0f	0.0056831907
6	0x3b61e05d	0.0034466006
7	0x3b40503b	0.0029344696
8	0xbc17d4f0	-0.009267077
9	0x3bde6fa9	0.0067882133
10	0xbbaf83c4	-0.005356284
11	0xbc5b7f4e	-0.013397051
12	0xbc33e48a	-0.010979781
13	0x3b0d9b1c	0.0021607345
14	0xbbdf62f9	-0.0068172184
15	0xbc023105	-0.0079462575
16	0xbb297a49	-0.002586024
17	0xbc200fc2	-0.009769382
18	0xba89fca4	-0.0010527563
19	0xbb80f964	-0.0039359797
20	0xbbc5c399	-0.00603528
21	0xb9eb5470	-0.00044885604
22	0x3b48f72b	0.0030664902
23	0x3c34c46d	0.01103316
24	0xbaba78ab	-0.0014226636
25	0xbc14bf07	-0.009078748
26	0x3c1bef12	0.009517448
27	0xba02d146	-0.00049902906
28	0xbbd122e4	-0.006382333
29	0xbc85269b	-0.01625376
30	0x3c011490	0.007878438
31	0xbc7b0534	-0.015321065
32	0xbae4bb15	-0.0017450774
33	0xbb9fad19	-0.00487293
34	0x3a36c90d	0.0006972708
35	0xbb3cd834	-0.002881539
36	0x3b90fe04	0.0044248123
37	0xbb2060d9	-0.0024471788
38	0x3a98b067	0.0011649252
39	0x3c260d0e	0.010134948
40	0xba705171	-0.0009167409
41	0x3c221db0	0.009894773
42	0xbb00cbe9	-0.001965279
43	0xbb83bc9c	-0.0040202867
44	0x3b85d2a6	0.004083949
45	0xba5407ea	-0.00080883375
46	0xbba4b90c	-0.005026942
47	0x3a9caa0e	0.0011952536
48	0xbbdac400	-0.006676197
49	0xbb0404b0	-0.0020144396
50	0x3b19ca63	0.002346658
51	0x3b378603	0.0028003461
52	0xbc031f61	-0.008003087
53	0x3b46e6eb	0.003035004
54	0xbc406682	-0.01174319
55	0x3c6a5718	0.014302991
56	0xbbdcd956	-0.0067397757
57	0xbb36106e	-0.002778079
58	0xbc06d3d7	-0.0082292175
59	0xbba33ef8	-0.0049818717
60	0x3c207b60	0.00979504
61	0x3b4dbe5d	0.0031393983
62	0xbc2fdff4	-0.010734547
63	0xbb6d38ad	-0.0036197111
64	0xbb5eae3d	-0.0033978366
65	0x3c783ecd	0.015151692
66	0x3b66a8c5	0.003519581
67	0x3bcc0766	0.006226468
68	0xbb97b1ec	-0.0046293642
69	0xbbc805a2	-0.006104187
70	0x3bfbce9e	0.007684543
71	0xbb211186	-0.0024577095
72	0xbb9fd55c	-0.0048777293
73	0x3b4f2a09	0.0031610748
74	0x3c5e5c40	0.013571799
75	0xbc0acd76	-0.008471837
76	0x3b2b5ec8	0.0026149023
77	0xbc062be5	-0.008189176
78	0xbae01b05	-0.0017097896
79	0xbbcc4db9	-0.006234851
80	0xbad59600	-0.0016295314
81	0xbbfacd97	-0.0076539028
82	0x3a6adae0	0.00089590065
83	0x3c4c2deb	0.01246212
84	0xb8a4b056	-7.8529745e-05
85	0xbc259590	-0.010106459
86	0x38a23114	7.7339035e-05
87	0xbbf98a18	-0.007615339
88	0xbbbf5f0d	-0.0058401884
89	0xbbe71df3	-0.007053131
90	0x3bb4a499	0.0055127856
91	0x3c397831	0.01132016
92	0xb9d8e3af	-0.00041368368
93	0x3b58ac54	0.00330617
94	0x3b2f0c79	0.0026710315
95	0x3bc7a179	0.006092247
96	0x3b44d1dc	0.0030032312
97	0x3c1327a6	0.008981621
98	0xbb8a9088	-0.0042286552
99	0xbae7cfed	-0.0017685868
100	0xbbadc9b6	-0.005303587
101	0xbbcc5066	-0.00623517
102	0xbb130394	-0.0022432553
103	0x3b1720a8	0.0023060236
104	0xbb876530	-0.0041319355
105	0xbb0a9002	-0.0021142964
106	0xbbc7ce40	-0.006097585
107	0x3ad06037	0.0015897815
108	0xbbd659c6	-0.0065414635
109	0xb961e809	-0.00021544112
110	0xba1fa2a7	-0.0006089606
111	0x39c8f4c8	0.0003832935
112	0x3c2ea8ee	0.010660393
113	0x39953a83	0.0002846309
114	0xbb894188	-0.00418872
115	0xba96750d	-0.0011478976
116	0x399b570e	0.00029628765
117	0x3b4ff8b6	0.0031733937
118	0x3b0c0cc6	0.0021369918
119	0x3b531643	0.0032209314
120	0x3c170a63	0.009218785
121	0xbb92b5b0	-0.0044772252
122	0x3b6ac172	0.0035820869
123	0x3ba572d9	0.0050490913
124	0x3a0fa514	0.00054796156
125	0x3af52bc4	0.001870506
126	0xba091d03	-0.00052304583
127	0xbbc0121f	-0.005861535
128	0xbc2d78e3	-0.010587904
129	0xba7034a1	-0.0009163116
130	0xbb50de71	-0.0031870867
131	0x3bb5d9bd	0.005549638
132	0x39df8661	0.00042633995
133	0x3bc383ea	0.005966653
134	0x3c23c514	0.009995718
135	0x3a5ae883	0.0008350687
136	0x3bd1db89	0.0064043445
137	0x3c2fbbf5	0.010725965
138	0x3bcd6d43	0.0062691285
139	0x3954cb80	0.00020293705
140	0x390d637f	0.00013483873
141	0xbacadd8b	-0.0015477402
142	0xba9166b3	-0.0011093229
143	0xbc0b163c	-0.008489188
144	0xbc4cb3c3	-0.01249403
145	0xbc27865e	-0.010224907
146	0x3b333f41	0.0027350935
147	0xbc5901fb	-0.013245101
148	0x3b95eaac	0.004575094
149	0xbb1d9655	-0.0024045904
150	0x3b3d5707	0.0028890984
151	0x3ba70438	0.0050969385
152	0xbae52eb6	-0.0017485234
153	0xbab5aa5a	-0.0013859973
154	0x3a9b9828	0.0011870908
155	0x3be37d8c	0.0069424566
156	0x3ab892f8	0.0014081886
157	0x3b02471e	0.0019878815
158	0xbacee7e7	-0.0015785665
159	0x3c05a283	0.008156422
160	0x38b1754a	8.4618645e-05
161	0x39c48850	0.00037485594
162	0xba9622bb	-0.0011454442
163	0xbbbe8880	-0.005814612
164	0x3baf919c	0.005357934
165	0x3afc4094	0.001924532
166	0x3bba7309	0.005689983
167	0xbc7fed76	-0.01562058
168	0xb9ba99ab	-0.00035591176
169	0x3bf1002d	0.0073547573
170	0xba253ee2	-0.0006303621
171	0xbbc111e7	-0.0058920267
172	0x3b29520d	0.002583626
173	0xbaa6c1bb	-0.0012722531
174	0x3bbea0fe	0.0058175316
175	0xbb2e7f9b	-0.0026626352
176	0x3b775bfa	0.0037744031
177	0x3b2b1d49	0.0026109985
178	0x3b18d79e	0.0023321877
179	0x3b7234a8	0.0036957655
180	0xbb97cdaf	-0.0046326737
181	0xbc555b77	-0.013022295
182	0x3b8cc22c	0.004295608
183	0x3b2eb048	0.0026655365
184	0xbbad994f	-0.005297817
185	0x3aea4e83	0.0017876182
186	0x3bfbb947	0.007681999
187	0x3b568a43	0.003273622
188	0xbb665bda	-0.0035149963
189	0x3b0844e3	0.0020793013
190	0x3b1d6500	0.00240165
191	0xbbd84734	-0.006600285
192	0xbb4b4bb5	-0.0031020467
193	0xbb0d67e2	-0.0021576812
194	0x3b229e09	0.0024813435
195	0x3bf0d1e1	0.0073492383
196	0xb89b3d0e	-7.402348e-05
197	0x3a72b0fd	0.00092579407
198	0x3b5a671a	0.0033325613
199	0x3bc86431	0.0061154594
200	0xbb8e0add	-0.004334791
201	0xbc2dc9d2	-0.0106072
202	0xbb42c8bc	-0.0029721698
203	0x3a6d0e5b	0.00090429717
204	0xbb4a318a	-0.0030852281
205	0xbb9973da	-0.004683
206	0x3bf1e4d8	0.0073820166
207	0xbb2387cb	-0.0024952765
208	0xbbd09a19	-0.006366026
209	0xbb670908	-0.0035253186
210	0x3b4ad478	0.0030949395
211	0xbbf534a6	-0.007483083
212	0x3bbc5696	0.0057476265
213	0xbbc41dcd	-0.005984998
214	0x3bcc0843	0.006226571
215	0x3c3417bf	0.01099199
216	0xba78d11e	-0.000949161
217	0x3befb8bf	0.0073157246
218	0xbbbf7e4d	-0.0058439136
219	0x3a1c608e	0.00059653155
220	0x3ba1ec14	0.004941473
221	0xbba20214	-0.0049440954
222	0xbbffa702	-0.0078018913
223	0x3b81d927	0.003962654
224	0x3c2228eb	0.009897451
225	0xbb68d3a9	-0.003552655
226	0xbb37e1eb	-0.0028058242
227	0x3c34b780	0.011030078
228	0x3ba13990	0.004920192
229	0x3b016c41	0.0019748362
230	0x3bf7e971	0.00756567
231	0xbb027d85	-0.0019911241
232	0x3b768581	0.0037616196
233	0x3a503c36	0.00079435424
234	0xbbc9372c	-0.00614061
235	0x3bc6be26	0.006065148
236	0xbc6e5024	-0.014545474
237	0xbbc103b2	-0.005890333
238	0x3b116434	0.002218497
239	0x3b8fb557	0.004385631
240	0x3b800022	0.003906266
241	0xbaf5340f	-0.0018707531
242	0x3c62999b	0.013830568
243	0xbb104f9f	-0.0022020114
244	0xbc050574	-0.008118976
245	0x3b6ff3c8	0.003661381
246	0x3c699141	0.014255823
247	0x3b4850a5	0.0030565646
248	0xbaee9df1	-0.0018205029
249	0x3a14452b	0.0005656059
250	0xbba7cdf5	-0.0051209875
251	0xbb8e10cf	-0.0043355
252	0x38a40093	7.820236e-05
253	0x3b3a9041	0.002846733
254	0x3b8e8631	0.004349493
255	0xbb91f641	-0.0044544046
