gemma_7b_patch_adapters/0000100_adapters.safetensors (safetensors, 459200 bytes, 4 tensors)

model.layers.27.self_attn.q_proj.lora_a f4 [3072, 8]
000000 2b d4 2e bc be 5b 21 bc 19 39 21 bb ed 9d b0 3b
       -0.010670702 -0.009848533 -0.0024600683 0.00538992
000010 a5 15 93 bc 69 4c 0d 3c f6 99 b3 3b 0e b0 62 bb
       -0.017954657 0.008624175 0.005481 -0.00345898
000020 0f a5 f1 3a 55 53 57 3c 50 1c 08 3c a0 f0 f6 bb
       0.0018436032 0.0131424265 0.0083075315 -0.007536009
000030 8a 76 e6 3b 20 a4 c6 bb e6 27 b7 b9 83 e5 11 bc
       0.007033174 -0.0060620457 -0.00034934207 -0.0089048175
000040 1d c4 46 bc 63 41 18 ba 73 80 04 bb 5e 93 75 3c
       -0.012131718 -0.0005808083 -0.0020218163 0.014988748
000050 fe df 61 bc 9c 17 b3 bb 8f fb 92 ba e2 f3 be bc
       -0.013786314 -0.005465461 -0.0011213886 -0.023309652
000060 30 88 52 3c 4e bb 04 3c 5d ed a4 3c f3 da 20 bc
       0.012849852 0.008101298 0.020132715 -0.009817827
000070 d8 22 49 ba 73 79 c3 ba 6e 79 b4 bb 6d 08 5e 3c
       -0.00076727336 -0.0014913514 -0.0055076396 0.013551814
000080 6c 7c 27 bc 69 48 83 bc 8f 27 db 3b 39 b3 21 3c
       -0.010222536 -0.016025739 0.0066880654 0.00986939
000090 9d a6 40 3c 71 ec 72 3c 4a f5 69 bc 89 d9 db bb
       0.011758474 0.01482688 -0.014279673 -0.006709282
0000a0 7b 4d 76 3a 16 fd 27 3c 09 a9 35 bc b5 ab 81 bc
       0.0009395701 0.0102532115 -0.011087664 -0.015828947
0000b0 1a 2f 26 bc 72 e1 1d 3c 0f 62 6e 3b 2d f5 e1 3b
       -0.010143066 0.00963627 0.0036374365 0.0068956823
0000c0 f1 ea 2d 3c 41 7e b1 b9 72 0d f0 bb ee 6e a4 bb
       0.010615096 -0.00033854137 -0.0073258216 -0.0050181067
0000d0 7e 09 23 3c e4 8d 8c bc 6f 31 aa 3b b3 41 0f bc
       0.009950994 -0.017157502 0.005193881 -0.008743691
0000e0 c4 1e 31 3c 37 c3 84 bb bc 6e 87 3b 66 d8 9b 3c
       0.010810558 -0.0040515917 0.0041330736 0.019024085
0000f0 98 d3 93 3c 99 e1 b5 3c 95 81 ed bb 17 06 0c 3c
       0.018045232 0.0222023 -0.0072481134 0.008546374
000100 a1 ef e8 bb 3f 70 ae bc af 60 f3 3a 0d 92 ae 3b
       -0.007108644 -0.021293757 0.0018568243 0.005327469
000110 f5 a1 16 3c f6 d7 05 3a c8 c1 80 3c 64 c4 12 3c
       0.009193887 0.0005105728 0.015717402 0.008957956
000120 d4 02 6a bc 22 13 8c bb 2f f5 08 3c 32 50 aa 3c
       -0.014282901 -0.0042747417 0.008359238 0.020790193
000130 bc c6 e2 b8 8d d3 be 3c 6e 73 a3 bc cc bc 8f bc
       -0.00010813537 0.023294235 -0.019952502 -0.01754608
000140 76 8b 5b bc 40 04 a4 3c c0 32 18 3c 09 6d 2b 3b
       -0.013399949 0.020021558 0.0092894435 0.002615752
000150 59 17 4c 39 8d 9d b7 3a 3c 08 a1 3b fa bf 22 bb
       0.00019463654 0.0014008746 0.0049143117 -0.0024833665
000160 19 0f ac bc 3d 0d 62 bc 1b dd 8b 3c 42 c3 23 bc
       -0.021003293 -0.013797102 0.017073205 -0.009995284
000170 93 bd 14 bc 32 19 95 bc dc 8c 5b bb 5c 68 f6 ba
       -0.009078401 -0.01820049 -0.0033500707 -0.0018799412
000180 76 1d 18 3c 41 1f af ba ee fc 1a 3b 29 38 09 3c
       0.009284368 -0.0013360755 0.0023649293 0.008375206
000190 2e f8 d5 bb fe 4c 3c bc 13 96 08 bc bf cf 73 bc
       -0.0065298295 -0.011492966 -0.008336562 -0.0148810735
0001a0 dc 27 13 3b c9 d8 25 3c 58 8b 72 3b 90 eb 41 b7
       0.0022454178 0.010122486 0.0037009325 -1.1558543e-05
0001b0 ae d1 07 bc 74 f5 d8 bb 7f b5 72 bc 31 97 89 3c
       -0.008289738 -0.006621057 -0.01481378 0.016795726
0001c0 07 92 61 3b dc 56 ab bb 19 53 9d 3c d7 41 45 3c
       0.0034419314 -0.0052288603 0.019204663 0.012039623
0001d0 31 fa 29 3c e7 74 45 bb 4a 62 24 bb 71 e7 49 3c
       0.010374592 -0.0030129494 -0.0025083 0.012323246
0001e0 c5 d9 7d 3b 47 37 a9 bc 09 e4 b6 3b 63 e7 df ba
       0.0038734537 -0.020656241 0.005581383 -0.0017082508
0001f0 af 82 c1 3a 09 65 87 bc 08 26 23 3b 28 d7 9c bb
       0.0014763678 -0.01652767 0.0024894495 -0.004786391
000200 00 25 80 bb 86 c5 45 3c 3b a8 94 bb 48 ff 10 3c
       -0.0039106607 0.012071019 -0.004536656 0.008849926
000210 53 be 77 ba 43 94 a0 bb 7e 4e 55 bc db 5f 31 bc
       -0.0009450663 -0.0049004867 -0.013019202 -0.010826076
000220 67 c2 30 bc 47 98 f1 3b 5c ad 5f 3c 7e b8 8b b7
       -0.010788537 0.007372889 0.013652172 -1.6656002e-05
000230 7c bb 5a 3c e2 2a 18 bc 0a ae 0f bc fa 36 ac 3c
       0.013350364 -0.009287568 -0.0087695215 0.021022309
000240 37 ee 55 3c 79 f1 0e ba ec a9 da bc 3f 45 1c bc
       0.013057283 -0.00054528523 -0.026692353 -0.009537994
000250 af cb 83 bc b0 43 17 3c 06 1b a0 3b 10 42 a3 3b
       -0.016088335 0.009232447 0.004886034 0.0049822405
000260 e0 6d c9 bb 5a b4 45 bb e0 6a 63 bc bf e7 db bb
       -0.0061471313 -0.0030167312 -0.013880461 -0.006710976
000270 70 74 11 3c ad 07 53 3c 12 ae 3b bb 88 10 3a bb
       0.0088778585 0.012880248 -0.002863769 -0.00283912
000280 c7 15 48 bb 02 d0 07 3c 7d d3 d9 bb 7f cf 78 bc
       -0.0030530558 0.008289339 -0.006647526 -0.01518619
000290 df cf 24 bb e5 60 62 bc 6c 59 a8 3a e7 ec 23 bc
       -0.0025148315 -0.013817047 0.0012844033 -0.010005212
0002a0 3e 15 b7 3a ea ae 2a bc 92 ea ab ba f9 af 9a bc
       0.0013968123 -0.010417679 -0.0013116172 -0.018882738
0002b0 62 6a 28 bc db f5 6d bb 1e aa 48 3c c4 bc a9 bb
       -0.01027927 -0.0036309871 0.01224759 -0.0051799733
0002c0 0a e0 16 bc 96 4f 95 bc fc 21 be 3b 9a 32 33 bc
       -0.0092086885 -0.018226426 0.005802391 -0.010937357
0002d0 5f 4d f6 3b 59 40 5d bb 71 7b 10 bc b2 64 be bb
       0.0075165476 -0.0033760278 -0.008818493 -0.0058103437
0002e0 50 9f 10 bc 53 17 dd bb f1 2d 0d 3c 3f 3d a8 3c
       -0.008827046 -0.006747165 0.00861691 0.020537017
0002f0 73 98 11 bc c2 d6 d5 3c 56 3e 4b 3c 19 a8 4c 3a
       -0.008886444 0.026103381 0.012404999 0.0007807031
000300 4e 01 12 3c 23 95 6b 3c b7 2f ff bb 26 7b a2 3c
       0.008911444 0.014378819 -0.0077876705 0.019834112
000310 6e 88 52 bc a2 66 a5 3c 0b d6 a4 bb ce 43 22 3c
       -0.01284991 0.02019054 -0.0050303987 0.009903861
000320 ce 74 85 39 4e 37 4c bc 86 fb ac 3c 50 4d bd 3c
       0.00025454763 -0.012464358 0.02111603 0.023108155
000330 b9 70 54 bc ac 07 76 3c 47 11 67 3c dd 59 82 bc
       -0.012966328 0.015016478 0.01410324 -0.01591199
000340 d7 a0 be 39 36 5c 54 3b 16 e0 81 3c d4 1e 24 3c
       0.0003635946 0.0032403595 0.015853923 0.010017116
000350 a6 23 d0 3b a4 8f 34 bb f6 73 09 39 47 df 7a bc
       0.006351906 -0.0027551437 0.00013108537 -0.0153120225
000360 45 9a 88 3c db f8 6e 3c 38 d0 a1 bc de bb 99 3a
       0.016675124 0.014585699 -0.019752607 0.0011728962
000370 ea 9a 98 3a 45 9b ed 3b e4 73 06 3c bf 93 98 3c
       0.0011642848 0.0072511756 0.008206341 0.018625138
000380 c4 50 0d bc 8b 68 3b 3c a8 db 86 bc 3a bc 01 bc
       -0.008625213 0.011438499 -0.016462162 -0.007918412
000390 bd 53 0b 39 83 c7 5f bc 8f 65 48 3c b6 ba 8b bc
       0.00013287268 -0.013658407 0.012231245 -0.017056804
0003a0 c4 f6 8d 3a 33 f4 e4 3b b7 6f 60 3c 95 ce 88 bc
       0.0010830988 0.0069871186 0.01369851 -0.016700068
0003b0 a5 eb d4 bb ff bc 58 bb 51 62 b2 3c 14 d6 4f bc
       -0.0064978176 -0.0033071635 0.021775397 -0.012685318
0003c0 2b 03 68 bc 3e 2b f8 bb 12 c4 b6 bb ed 92 52 3c
       -0.014160912 -0.0075735142 -0.0055775726 0.012852413
0003d0 8d d8 c8 3b 5a fb 1d 3c f5 c5 ad 3b e9 39 10 bc
       0.0061293305 0.009642446 0.0053031393 -0.008802869
0003e0 61 c8 e5 bc 43 d8 b4 3c d6 96 b4 bc a4 c7 48 b9
       -0.02804965 0.022075778 -0.02204458 -0.00019147858
0003f0 b3 88 6f bc cc 78 03 3a ec 6e db bb fe ab 86 bc
       -0.014619994 0.00050152536 -0.0066965725 -0.016439434

model.layers.27.self_attn.q_proj.lora_b f4 [8, 4096]
000000 ee 41 63 3b 88 59 fb 3b 61 f3 b4 ba 73 a3 76 3b
       0.0034676748 0.007670585 -0.0013805443 0.0037634044
000010 6b 21 b3 3b dd c3 7e bb 91 f9 3b bc 0b 4f 5f 3c
       0.00546663 -0.0038874068 -0.0114730755 0.013629685
000020 f7 7d de bb ca e4 80 3b 6b c3 81 3a a3 0f c4 bb
       -0.0067899185 0.003933524 0.0009900158 -0.0059833094
000030 13 35 be bb c7 90 21 3b f9 e7 1f bb 37 c1 e3 bb
       -0.005804667 0.0024652944 -0.002439974 -0.0069505232
000040 30 d7 d8 bb cc 7b 68 3c dc d1 c0 3a f7 3b 70 bc
       -0.006617449 0.014189672 0.001471098 -0.014662734
000050 be 8d 01 3c c0 5e ee 3b 6f 2b 8d ba ce 73 69 3a
       0.007907329 0.0072744787 -0.001077039 0.0008905501
000060 32 42 6a 3b 3d 80 bc bb 2f 6f 2f 3c e7 04 23 3b
       0.0035745022 -0.005752592 0.010707661 0.0024874748
000070 0d d5 73 3b da 01 b0 bb 9a 1a 0c 3c 04 e3 92 3b
       0.0037205846 -0.0053713145 0.008551264 0.004482629
000080 c4 bb 0e bc f8 6c 29 3c a5 f6 98 3a d3 07 b5 3b
       -0.008711759 0.010340922 0.0011670185 0.0055246144
000090 41 b7 cb bb 06 17 3f bb 76 34 58 3b a2 49 e4 bb
       -0.006216914 -0.002915801 0.0032990254 -0.0069667855
0000a0 38 ae dd 3a 63 2d 1f 3c d7 27 b9 3b 6f f7 2b 3b
       0.0016912883 0.009715411 0.005650501 0.0026240011
0000b0 ca 99 63 3c 83 b4 af 3a a6 bc 81 3b 38 a0 24 3c
       0.013891647 0.0013405237 0.003959256 0.010047965
0000c0 61 23 0d 3b 40 da 1b bc a3 ce 2d bb e1 2f 24 3c
       0.002153598 -0.009512484 -0.002652087 0.010021181
0000d0 b7 5a 28 3b 39 9e ed 3b 94 c1 07 bc bc 69 18 3b
       0.0025688836 0.0072515276 -0.008285899 0.0023256382
0000e0 c9 65 8f 3b d6 b1 1d bb ce 3d 1f 3c 62 df 99 3b
       0.0043761474 -0.0024062297 0.009719325 0.0046958188
0000f0 c5 37 ae 3b bd 0e 96 bb 7d 27 c0 3b 02 37 ff 3b
       0.005316707 -0.0045793937 0.0058640824 0.00778854
000100 7b 42 36 bc 2e f1 9f bb 4f d7 13 bc ef b7 c5 3b
       -0.011124249 -0.004881046 -0.009023502 0.0060338895
000110 1b b0 c4 3b 9a df 1e 3c fe 7a 65 bc 19 c4 8a 3b
       0.0060024387 0.009696865 -0.014006374 0.0042348024
000120 46 09 80 ba 83 31 63 bc f5 31 d0 bb 5f 3f 93 3b
       -0.0009768389 -0.013866785 -0.0063536116 0.0044936384
000130 8b b1 4d bb 2e be 2c bc f6 35 27 bc e9 cd 0a 3b
       -0.0031386341 -0.010543389 -0.010205736 0.002117986
000140 93 92 31 3b 2a 1a 95 3a b1 e3 61 3a 38 b8 cb 3b
       0.0027095422 0.0011375595 0.00086169975 0.006217029
000150 e5 5d a6 bb 5f f2 c0 3a 05 33 7d bc 9f f9 97 3b
       -0.005077111 0.001472067 -0.015454059 0.0046379115
000160 a7 cb 26 bc dd ff b7 bb 00 9c 11 39 c6 86 fd bb
       -0.01018039 -0.005615218 0.00013886392 -0.0077370135
000170 40 19 4f bc b9 f2 9f 3a ad 2f a9 ba 9f 7e 0f 3b
       -0.012640297 0.0012203074 -0.0012907885 0.002189554
000180 89 03 de ba b7 65 16 b9 95 7a 11 bc 70 62 9c bb
       -0.001693831 -0.00014343006 -0.0088793235 -0.004772477
000190 f8 ac 1b bc 23 40 ed bb dc 9e b0 3b f4 7f fc 3b
       -0.009501688 -0.0072403117 0.0053900313 0.007705683
0001a0 89 8a 99 bb c2 74 ba bb 3c 35 1f bc e3 3c 85 bb
       -0.004685704 -0.005690188 -0.009717282 -0.004066096
0001b0 f0 d4 c2 38 cf 64 75 39 c7 1a 27 3c 62 1f ae bb
       9.2903036e-05 0.00023402575 0.010199255 -0.0053137997
0001c0 a9 97 78 bb 5c 87 fc 3a 29 9e 02 3c 01 59 5c bb
       -0.0037932193 0.0019266414 0.007972279 -0.0033622386
0001d0 4a 9e 2f bb 22 58 05 bb ec 81 ba 3b 13 56 b9 3b
       -0.0026797228 -0.002034672 0.0056917574 0.005656013
0001e0 a2 ff af 3b 93 52 86 bb ce 69 0b 3a 17 d8 1d 3b
       0.00537105 -0.004099199 0.00053181953 0.0024085098
0001f0 31 c5 b4 3a 54 11 37 3c c9 63 0b bc 5c 52 c8 ba
       0.0013791678 0.011173565 -0.008507677 -0.0015283334
000200 31 a4 cc ba 9d 32 e5 bb 49 f6 a9 3b fd 36 c8 39
       -0.0015612898 -0.006994559 0.00518683 0.00038187942
000210 b9 6d da bb ec da 13 bc e6 d3 8d 3b 94 d2 a0 3b
       -0.006665912 -0.009024363 0.004328239 0.0049079154
000220 41 43 05 bc 0f 62 8b bb e8 9e 77 3b bb 98 36 bc
       -0.00813371 -0.004253633 0.0037783924 -0.011144812
000230 1a 8f 8b 3b ef ec 35 bc d9 a4 d1 3b c5 7c 5a bb
       0.0042590024 -0.011103853 0.006397825 -0.0033338529
000240 bb c0 59 bb 37 c2 8e b9 76 16 af ba aa f0 04 3a
       -0.0033226449 -0.00027229052 -0.0013358134 0.0005071262
000250 2c f9 bd 3b f9 ca c2 bb 9a 67 6d bc c8 e6 31 ba
       0.005797526 -0.0059446064 -0.014490033 -0.0006786403
000260 db 56 bd ba 96 aa 0d 3c ab 65 a8 bb 14 31 9f 3b
       -0.0014445441 0.008646628 -0.005139073 0.0048581455
000270 07 23 c7 3b c3 da 0a 3a 05 12 27 bc 78 b6 f3 b9
       0.0060771736 0.000529688 -0.010197167 -0.00046484522
000280 5a 8b 85 3b 26 ba d6 b9 86 55 0d 3b 68 db 23 ba
       0.00407545 -0.00040955952 0.0021565869 -0.00062506506
000290 65 72 db bb e8 aa d9 bb f6 48 4f 3c 1c f3 c8 3b
       -0.0066969865 -0.006642688 0.012651673 0.0061324965
0002a0 f9 a0 ca 3a 01 78 99 bb a7 10 3d bb f6 eb 8a ba
       0.001545935 -0.004683495 -0.0028849037 -0.0010598886
0002b0 ec 1f 0f 3c cf 22 a7 39 41 13 96 3b dd a1 01 3c
       0.008735638 0.00031878657 0.004579932 0.007912126
0002c0 0e 7a bb 38 89 eb 7c 39 4f c6 2b 3c ff 46 a4 bb
       8.939589e-05 0.00024120336 0.010484292 -0.005013346
0002d0 f1 c8 12 bc 0e b3 12 3b f2 5c 10 3c c0 f9 a7 3b
       -0.008959041 0.0022384557 0.008811222 0.005126208
0002e0 7c 22 f6 bb 7e fc 97 3a a7 55 2a bb 89 06 a7 bb
       -0.007511435 0.0011595634 -0.0025990994 -0.0050972146
0002f0 f3 31 f7 bb 67 03 ab bb 39 27 45 bc 71 98 69 3c
       -0.007543796 -0.0052189115 -0.012033277 0.014257536
000300 f2 97 5c bc 42 d4 81 3b cb 0e b5 3a 04 08 16 3c
       -0.013463961 0.0039620707 0.0013813613 0.0091571845
000310 11 47 02 bb 4a b5 63 ba be 6e 28 3c 72 e1 61 3a
       -0.0019878785 -0.0008686377 0.010280309 0.0008616663
000320 f8 ca 0f 3c fb a2 64 bc 22 f5 83 bb e2 a8 49 3c
       0.008776419 -0.013954873 -0.004027025 0.012308331
000330 87 1f 51 bb 20 d9 dd 3b d6 0d fd 3a 5d ac 12 3b
       -0.003190966 0.006770268 0.0019306492 0.0022380569
000340 85 30 6b 3c f8 04 f2 3b 5d f0 58 3b 2a 52 1e bb
       0.01435483 0.007385846 0.0033102252 -0.002415786
000350 54 2d 63 bc 7c 1d 75 bb 1b 3c 9b bb a7 fc 7f 3b
       -0.013865788 -0.0037401607 -0.0047373897 0.0039060505
000360 26 fe 30 bc 04 45 15 3b d2 1e d5 3b 6d db 0d bc
       -0.010802781 0.0022776732 0.006503918 -0.008658272
000370 41 37 98 bb 2b c8 09 bc c4 04 67 3b 58 da 05 3c
       -0.0046452587 -0.00840954 0.0035250643 0.008169733
000380 2f bd cf bb ea 24 b2 3b de 73 a1 bb 76 96 31 bc
       -0.006339691 0.0054365294 -0.0049271425 -0.010839095
000390 be 09 ff 3b fd d1 0e 3c bc 07 22 b8 f0 57 95 3a
       0.007783144 0.008717057 -3.8631013e-05 0.0011394005
0003a0 9e 3f 0b 3c 0b 57 04 3b bb 5a d8 3b 38 cd 20 bb
       0.008499054 0.0020193483 0.006602613 -0.0024536382
0003b0 f8 cd 2d bc 25 86 01 bc 36 56 44 3b df f7 0e bc
       -0.010608189 -0.007905518 0.0029958612 -0.008726089
0003c0 93 c5 09 3a d9 9d c8 bb 74 4f 24 3c c9 8b c5 3b
       0.0005255576 -0.0061223325 0.010028709 0.0060286266
0003d0 09 e1 6e bb c2 2f a2 3b 17 15 13 3a 37 c8 12 bc
       -0.003645005 0.004949541 0.00056107476 -0.008958868
0003e0 db b1 82 3b b9 48 43 bb 7b 91 26 bc c7 58 d1 3b
       0.003988487 -0.0029797985 -0.010166521 0.006388757
0003f0 dd 57 c1 3b a2 2f a9 3b 07 24 da bb 5f de ef b9
       0.0059003667 0.005163149 -0.006657127 -0.00045751312

model.layers.27.self_attn.v_proj.lora_a f4 [3072, 8]
000000 eb 2d 30 bc c4 ad 4a 3c ee cf 4b 3c 38 aa 40 3c
       -0.010753135 0.0123705305 0.012439711 0.011759333
000010 40 93 ac 3b 93 7b 2b 3a df d3 de bb 3b 50 0c 3c
       0.005266577 0.00065415463 -0.0068001593 0.00856405
000020 b9 c3 ab bb af bc a2 3b 9d 03 66 3c f5 cf 26 3c
       -0.005241838 0.0049663405 0.014038947 0.010181417
000030 b8 d4 0a 3a 36 1a e6 bb d1 b6 4a bc a8 7f 3c 3c
       0.000529598 -0.0070221676 -0.012372688 0.011505045
000040 64 29 ca 3b 76 3c c5 bc 67 21 55 bc e8 fe 8b bc
       0.006169485 -0.024076682 -0.013008452 -0.017089322
000050 08 fa c3 bc f8 62 a5 3c c3 aa c6 bb 8d 1b 68 3c
       -0.023922935 0.020188794 -0.006062837 0.014166725
000060 37 fa 7d 3c ec ec ad 3b 7b 0d 13 bc 5e 51 bb bb
       0.01550155 0.0053077843 -0.008975382 -0.005716487
000070 c4 ed 61 bc a6 37 34 bc 9a 44 f0 3b 79 bb 53 3b
       -0.013789598 -0.010999596 0.0073323967 0.0032307787
000080 c9 d7 4b bc 14 ff 28 bb c7 89 86 3b 6c d1 87 3b
       -0.012441584 -0.0025786804 0.00410578 0.004144838
000090 d1 7a a6 bb 01 20 73 bc 2c e1 e7 3b 61 8a b8 bb
       -0.005080559 -0.014839173 0.007076403 -0.0056317304
0000a0 e1 b9 40 3b 01 af b8 3b 46 61 7f 3b 4f 8f 9f 3a
       0.0029407667 0.0056360965 0.0038967892 0.0012173447
0000b0 cc 78 37 3c e4 6f 6a bc 1b 30 9e bc 39 7d ef 3b
       0.011198234 -0.014308903 -0.019310048 0.007308629
0000c0 21 f4 7b 3c 2a 98 ac 3a d1 38 ef 39 03 cf 84 b9
       0.015378029 0.0013167907 0.00045627964 -0.00025331238
0000d0 ce a9 37 bb fc 03 98 3c c9 1a 2a bc 32 5a 92 bb
       -0.0028024795 0.018556587 -0.010382363 -0.0044663185
0000e0 7e a6 2b bc df 0e 66 bb 56 54 e6 3a 41 7e 76 bc
       -0.010476707 -0.0035104079 0.0017572741 -0.01504475
0000f0 12 1a 18 3b 93 8d 86 bc e2 8f 8f b9 d5 6b 5b bc
       0.0023208898 -0.01642493 -0.00027382286 -0.013392408
000100 51 e3 b6 3a 9e 76 32 3c be 08 0a bc 55 30 2c 3a
       0.0013953244 0.010892538 -0.008424936 0.00065684813
000110 72 f1 77 bb c1 55 25 bc 82 7d 74 3b 30 94 bc bb
       -0.0037833122 -0.010091246 0.0037306254 -0.00575497
000120 2c 69 63 bc 0d 6d 54 bc b0 fc b4 3b ee c9 b0 3b
       -0.013880055 -0.012965453 0.0055232868 0.0053951656
000130 a2 18 ba bc 2e f4 0e bc e3 ff af bc 8a f5 e4 bc
       -0.022716824 -0.008725209 -0.021484321 -0.027949113
000140 81 c5 f6 bb 17 cc 96 bc fb 3c 35 3c be 7c 17 3c
       -0.0075308685 -0.018407864 0.011061902 0.009246049
000150 c6 95 da 3b a8 2a f0 3a 1a 83 5a 3c cc 5b 91 bc
       0.0066706864 0.001832326 0.013336921 -0.017743967
000160 cd 9a b1 39 ad d3 7e 3b 94 92 97 3c 1f d3 1a bc
       0.00033875406 0.0038883493 0.018502511 -0.009449749
000170 51 d5 4b bc 0e 85 07 3c 4c 26 03 bb 9f 5c 32 3c
       -0.012440995 0.008271469 -0.002001184 0.01088634
000180 c6 82 47 39 8b 4d ff bb cf 0a 29 3b 29 38 26 bc
       0.00019026836 -0.0077912263 0.0025793796 -0.010145226
000190 a5 ac 09 3c 4b b5 67 3c 7b e6 c8 b8 20 43 fe 3b
       0.008402978 0.014142345 -9.5796735e-05 0.007759467
0001a0 9b bc 86 3b 6c 3d c9 bb c4 15 1a bc 42 8f 8e 3c
       0.004111839 -0.0061413553 -0.009404603 0.017402295
0001b0 56 c4 9f bc 04 c8 81 3c 76 93 98 bc 29 04 09 bc
       -0.0195028 0.015842445 -0.018625002 -0.008362808
0001c0 de f3 9c bb f5 7b 73 39 30 10 05 bc 00 94 82 bc
       -0.0047898134 0.00023220463 -0.008121535 -0.015939713
0001d0 d3 31 03 3b b4 90 cf 3b 83 66 14 3c d8 73 66 bc
       0.0020018711 0.0063343886 0.009057644 -0.014065705
0001e0 99 8f 91 bc 43 8b 91 ba fb 7e 83 3c 03 c0 70 3c
       -0.017768668 -0.0011104125 0.01605176 0.014694217
0001f0 4c 04 93 bc a5 b0 31 bb ea 2f 38 bc 83 ae 80 3c
       -0.017946385 -0.0027113345 -0.011241892 0.015708214
000200 83 8d 0f bc 22 58 9b bc 39 ee 5c bc d0 5b 91 3c
       -0.008761766 -0.018962923 -0.013484531 0.017743975
000210 81 fa 53 3c d2 76 c6 3b ad fb 90 bc 6f d1 4b 3c
       0.012938143 0.006056645 -0.017698133 0.01244007
000220 4e aa 0c 3c 30 a0 55 ba c4 ba 28 3b 28 01 97 bc
       0.008585526 -0.0008149175 0.0025746087 -0.018433169
000230 96 f1 4b 3c 98 da 38 3c 52 a2 4a 3b c2 8b 3f 3c
       0.012447735 0.011282586 0.0030919504 0.011691036
000240 ec d0 3b 3c 81 72 94 3b e8 79 c0 3b f7 25 2c 3c
       0.011463385 0.0045302515 0.0058739074 0.010507098
000250 b1 7a 9e ba 94 bc 86 bc 56 67 a1 bb 3e cd 85 bc
       -0.0012091008 -0.016447343 -0.0049256487 -0.016333219
000260 f9 42 b7 3b c6 f1 a0 3b 63 fb 85 3c 14 00 71 3b
       0.0055927006 0.004911634 0.016355222 0.0036773728
000270 0f 0f cc 3c 46 5d 3f 39 d0 88 89 3b 1e 6e 3b bc
       0.024909524 0.00018249927 0.0041972175 -0.011439828
000280 4d 44 cf 3b ea 77 bb 3b 8c b4 6b 3c 3b 96 48 3c
       0.0063252808 0.005721082 0.014386307 0.012242849
000290 a9 73 21 bc c5 8e 59 bc d5 bc 34 bc ed e1 70 3c
       -0.009854236 -0.013278668 -0.011031349 0.014702302
0002a0 3e 45 11 bc fa 19 37 3c c5 fb a3 bb 1a 8c 57 3c
       -0.008866606 0.011175627 -0.0050043785 0.013155961
0002b0 0e 6d a3 bc 5b 41 c2 3a 96 e1 09 bb 43 5f 82 bc
       -0.019949462 0.0014820503 -0.0021039 -0.015914565
0002c0 25 0b 3e bc ac 76 c5 3c 21 c4 3c 3c 68 40 05 bc
       -0.011599337 0.024104439 0.01152137 -0.008133031
0002d0 d0 f8 74 bc 59 c1 fa 3b c4 86 39 b9 6a f6 6b bc
       -0.0149519 0.0076524434 -0.00017693179 -0.014402011
0002e0 4e bc 9d bc 41 36 9c bc 45 6d db bb 29 d4 13 bc
       -0.01925483 -0.019068839 -0.0066963756 -0.009022751
0002f0 26 a7 28 3c 17 88 9a 3c 20 96 18 3c 26 0c 97 bb
       0.010293758 0.01886372 0.009313136 -0.0046096025
000300 97 dc af 3b 7b 30 ad bc 7f 9f 0d 3b f8 78 fd 3b
       0.0053668725 -0.021141281 0.002160996 0.007735368
000310 82 95 8f 3c cc c0 76 3c ed 12 97 bc 51 2b 3f bc
       0.017527346 0.015060615 -0.018441642 -0.011668042
000320 fc 5a 23 3c d3 61 43 3b 7c 97 83 bb 77 6d 2f bc
       0.009970423 0.0029812946 -0.004015861 -0.010707251
000330 92 4b 61 3c d6 6f 23 3c 34 5f 5f 3c bf 92 c9 bb
       0.0137509275 0.009975394 0.013633538 -0.0061515267
000340 ee e8 20 3c 00 e0 16 3b 69 8d 8e bc f5 ad fd 3a
       0.00982116 0.0023021698 -0.017401414 0.0019354211
000350 58 13 fe 38 98 64 cc 39 60 5c 6b 3b b8 de 5c 3c
       0.00012115267 0.0003898486 0.0035913214 0.013480835
000360 2e 49 90 3c 3c 28 29 3c d9 5b ac bb f6 4e 4b 3c
       0.01761302 0.010324534 -0.0052599725 0.0124089625
000370 64 35 3f bb b6 34 c2 bb f2 a1 0e 3c bd 1a 9f ba
       -0.002917611 -0.005926694 0.008705603 -0.0012138706
000380 7e 5a 92 bc dc fd f6 3b ac 87 a9 bc 1c 46 8c 3a
       -0.017865416 0.0075375866 -0.020694576 0.0010702047
000390 08 38 73 3c 22 3f b4 3c 60 4d a0 ba 46 9c c9 bb
       0.014844902 0.02200276 -0.0012230091 -0.0061526624
0003a0 8e eb 13 3b 7e 76 29 3c 42 b3 2d bc e5 d8 04 3c
       0.0022570821 0.010343192 -0.01060182 0.008108352
0003b0 35 f5 16 bc 17 74 59 3c 23 6f 27 3c 49 54 55 bc
       -0.009213735 0.013272307 0.010219368 -0.013020583
0003c0 22 d1 5c 3c 57 e3 97 3c d1 e0 8f ba 80 bb ac 3b
       0.0134775955 0.018541021 -0.0010977035 0.005271375
0003d0 d4 6f b4 bb 05 e5 44 bc 6b 9a a9 bb 81 a0 82 3c
       -0.005506495 -0.012017493 -0.0051758788 0.015945675
0003e0 7b be f1 3b dd 71 33 3b 2b bd b2 bc 00 de 98 ba
       0.0073774434 0.00273811 -0.021818718 -0.0011662841
0003f0 44 e4 87 bc 6a 41 35 bc 30 85 65 bb 9d 33 76 3c
       -0.016588338 -0.011062959 -0.0035022013 0.015026954

model.layers.27.self_attn.v_proj.lora_b f4 [8, 4096]
000000 1b 45 5f bb db 16 8e 39 05 51 d8 3b cf 26 dc 3b
       -0.003406829 0.0002710138 0.006601455 0.0067184935
000010 e5 28 ce bb 8c 98 cd 3b f4 8e 17 3b 2c 45 ce 3b
       -0.006291496 0.0062742885 0.0023125978 0.006294867
000020 6f d9 b5 bb 3d 02 6a 3b 86 9a a8 bb 40 8a 04 bc
       -0.0055496017 0.00357069 -0.0051453738 -0.008089602
000030 b5 cd 3e bc f6 47 86 3b aa 32 e3 bb 08 f1 5a bb
       -0.011645724 0.004097934 -0.00693353 -0.0033407826
000040 75 2d 35 bb 4f cf 1b bc 37 2f 4f bb a9 fd 59 bb
       -0.0027645503 -0.009509875 -0.0031613836 -0.0033262766
000050 09 38 d8 ba 4d a8 36 3a 4c 6e ba 3b a3 c6 08 3c
       -0.0016496192 0.0006967828 0.005689418 0.00834814
000060 c5 1b 1b ba f0 de c2 bb 8a c5 df 3b 31 b7 b7 ba
       -0.0005916919 -0.0059469864 0.0068289684 -0.0014016387
000070 c2 3d 22 bb 62 9c 50 bc 59 d3 f0 3b 70 74 5e bc
       -0.0024756049 -0.012732597 0.0073494134 -0.013577566
000080 05 a6 ec ba 61 7b 7f bb b0 04 0e 3b 7a 02 8a bb
       -0.0018054849 -0.0038983452 0.0021670274 -0.004211721
000090 25 13 18 3b 5b 62 5e bb bc c8 c8 ba 83 b2 12 3c
       0.002320477 -0.0033933136 -0.0015318613 0.008953693
0000a0 06 1d 3f bb 2a e1 06 3c 05 6c de ba 17 cf 28 bb
       -0.0029161586 0.008232394 -0.0016969448 -0.00257582
0000b0 0d a4 0e 3b a3 2d 63 b9 74 ac 09 bb 47 75 64 3b
       0.0021765262 -0.00021665408 -0.002100733 0.0034859942
0000c0 9d df 9f bb af d3 6a bb e0 1c 90 3a 71 f0 15 3b
       -0.0048789517 -0.003583174 0.0010994934 0.002287891
0000d0 c7 7b c2 bb 4b 50 d1 3a 03 bd 12 bc d2 95 25 3c
       -0.0059351656 0.0015969364 -0.008956197 0.010106521
0000e0 9f 47 58 bb d8 70 66 bb c9 cb aa bb f3 24 35 bc
       -0.0033001674 -0.0035162475 -0.0052122814 -0.011056173
0000f0 38 cb 07 3c 3c 44 c9 b9 36 87 28 bc 92 1f ed ba
       0.008288197 -0.00038388546 -0.010286143 -0.0018091074
000100 05 bf 31 bb 71 cc 55 3c d4 3e 8f 3b 5c 23 87 3b
       -0.0027121913 0.013049231 0.0043715034 0.004124088
000110 5f 77 58 bb 95 95 c5 bb 4c 8b 58 3b ec b8 26 bb
       -0.0033030135 -0.0060297945 0.0033042012 -0.0025439812
000120 b2 e8 8c bb 88 28 da 3a e4 3b d9 3b e3 61 04 bc
       -0.0043002004 0.0016644159 0.006629454 -0.008079979
000130 8d 31 92 3b f1 a1 db bb 40 1d 7d ba d0 72 8f bb
       0.0044614733 -0.0067026545 -0.00096555427 -0.0043777004
000140 e4 16 13 bb 6b 47 ad bb 7e 0c 55 3b 33 b7 25 3c
       -0.0022444064 -0.0052880547 0.0032508667 0.010114479
000150 4a d5 9e 3a 2d da dc bb 27 60 89 3a c7 ff e9 bb
       0.0012118008 -0.006739876 0.0010480926 -0.0071410867
000160 5c 62 96 bb eb 40 d9 bb ba 5d a3 3b c2 b3 b6 3b
       -0.004589362 -0.0066300533 0.0049855383 0.005575628
000170 6e f6 06 bb 28 17 3d 3b cb ff f9 b9 e9 d6 ab 3b
       -0.002059366 0.0028852914 -0.00047683562 0.005244125
000180 b1 b2 4b 3b 28 92 14 3c 47 8e 7e bb af 56 c7 bb
       0.003108185 0.0090680495 -0.0038842128 -0.0060833315
000190 32 3b dd ba 40 da c7 bb 6e 32 78 ba b2 3c 01 ba
       -0.0016878603 -0.0060990155 -0.0009467964 -0.0004930004
0001a0 50 c9 06 bb 0a d3 dd ba 7c 85 a1 bb c0 08 1a 3b
       -0.002056677 -0.0016923856 -0.0049292427 0.002350375
0001b0 88 e0 ae bb 48 43 5a ba bc 82 52 ba ad 58 f4 3a
       -0.005336825 -0.0008326066 -0.0008030345 0.001864215
0001c0 bd ca d1 3b 96 55 0d bb 64 b7 14 ba 37 61 89 3a
       0.006402342 -0.0021565906 -0.0005673079 0.0010481243
0001d0 ae 63 a6 b7 46 ec 1d 3b 09 31 0e 3b fd 5b 24 3b
       -1.9835159e-05 0.0024097129 0.0021696708 0.0025079243
0001e0 26 25 c4 3b f6 06 c2 ba 2d e5 37 3a cd aa 8c 3b
       0.0059858738 -0.00148031 0.0007015046 0.004292822
0001f0 6c d0 2a ba 88 d0 bf 3a 76 56 2e 3b 0e b4 0c bc
       -0.00065160426 0.0014634291 0.0026601828 -0.00858785
000200 bb a6 1a bc 81 4d bc 3a f4 ec 29 3a dd 66 4d 3b
       -0.009439166 0.001436636 0.0006482147 0.003134183
000210 5c 86 fd 3a 79 cf 4a 3b 5c 1a 17 3c 94 06 0c bc
       0.001934241 0.0030946417 0.009222593 -0.00854649
000220 a4 11 c6 3b b3 d9 e1 3b c5 1f 5b 3b a2 df 70 b9
       0.0060445834 0.006892407 0.0033435684 -0.00022971493
000230 38 27 9c 38 53 0a 92 b9 01 1c b4 ba e5 26 a8 bb
       7.445965e-05 -0.00027854982 -0.0013741256 -0.0051315897
000240 4e a4 e3 bb b5 0b e7 bb 89 48 83 3b d2 a8 33 bc
       -0.006947077 -0.007050956 0.0040064496 -0.010965543
000250 fe e3 69 3b 6f 83 e5 ba da 75 1c b9 f6 a6 da 3b
       0.0035688872 -0.0017510484 -0.00014921222 0.0066727353
000260 63 9a 95 b9 d9 18 1f bb ae af 03 3b 63 43 73 3b
       -0.00028534522 -0.0024276285 0.0020093727 0.0037119023
000270 9c b7 36 3a 28 93 9c 38 fb 2e 98 ba 1e ee 84 3b
       0.0006970109 7.46607e-05 -0.0011610681 0.004056706
000280 92 e0 17 bb 3d 8a 60 3a 16 a5 46 ba fa 51 df bb
       -0.0023174626 0.0008565521 -0.00075777003 -0.0068151923
000290 88 2f bb 3b ab 6c 30 ba aa 40 e0 3b f1 5f 58 bc
       0.0057124533 -0.000673006 0.006843646 -0.013206468
0002a0 30 1a 16 3a fa c7 f7 3b 4f d9 83 ba 2f 6d d0 bb
       0.0005725948 0.007561681 -0.001005927 -0.006360672
0002b0 d4 54 c2 39 da 6e 31 ba 3c ee 95 3b 59 fd 72 bb
       0.00037065765 -0.00067685323 0.004575519 -0.0037077277
0002c0 ad 1f 6a 3b 02 70 7f 3b 0a f2 07 3b 68 15 24 3b
       0.0035724447 0.0038976674 0.0020743632 0.0025037173
0002d0 98 25 9b bb 72 64 2c bc 5b 2f de 3b 19 23 88 ba
       -0.004734706 -0.010521995 0.0067805476 -0.0010386436
0002e0 a4 08 7f bb bc 33 d7 3a aa d7 8a 3b 6f c0 48 3b
       -0.0038915062 0.0016418616 0.004237135 0.0030632277
0002f0 6b 2f 77 bb 60 6d 27 3b 55 53 47 3b a8 bd d8 ba
       -0.0037717472 0.002554737 0.003041466 -0.0016536014
000300 b5 e4 c9 bb 89 54 be ba 7a ed 9e 3a 6d 9c c5 3b
       -0.006161297 -0.0014521043 0.0012125217 0.0060306103
000310 0e 00 b8 ba 4c d7 31 3b a3 ff 2d 3b f7 be c0 3b
       -0.0014038102 0.0027136384 0.0026550076 0.00588214
000320 e4 4a 1f bb 35 15 12 bc 1d 30 7e 3b bf f8 3e ba
       -0.0024306113 -0.008916189 0.0038786002 -0.0007284991
000330 77 70 16 bb bd 3a d2 bb a8 1d 30 3c 7d a5 2d bb
       -0.0022955218 -0.0064156936 0.010749258 -0.0026496344
000340 fe 54 15 bc d1 de ed ba f9 e2 50 3b 61 42 ee bb
       -0.009114502 -0.001814807 0.0031873567 -0.0072710966
000350 9e a5 b4 3b 90 17 ce bb 87 40 b8 3b 09 ac 39 3c
       0.005512907 -0.00628943 0.0056229266 0.01133252
000360 09 42 e2 bb b2 55 ce 3b ca 24 56 bb b5 e5 9f ba
       -0.0069048447 0.006296837 -0.0032675737 -0.0012199195
000370 ee 16 d6 3b a3 27 3a bb 33 9a b0 bb 42 6b 34 3b
       0.006533495 -0.0028404973 -0.0053894757 0.002752975
000380 f4 b1 d7 3b be 97 05 bc aa c1 f9 38 f1 e1 0b 3c
       0.006582493 -0.008153854 0.00011909318 0.008537755
000390 68 95 cb 3b 6d 07 07 3b a4 af 38 3b 5f e7 16 bb
       0.006212879 0.0020603791 0.0028180862 -0.0023026092
0003a0 e9 5f f3 3a 48 37 be ba c4 45 a3 bb 01 26 16 3b
       0.0018568012 -0.0014512325 -0.004982682 0.0022910836
0003b0 bb 83 37 bc 21 e3 c5 bb 54 b1 9c 3b ee b1 8e 3b
       -0.011200841 -0.0060390388 0.0047818813 0.004354707
0003c0 1e 75 06 3b 55 30 28 3b 30 b3 1b 3c 81 d6 0c bb
       0.0020516585 0.0025663574 0.009503171 -0.002149016
0003d0 d9 79 9a bb be 77 86 3b 4e e4 26 3c d2 7d 7d 3a
       -0.0047142324 0.00410363 0.010186268 0.0009669933
0003e0 38 4b 2b 38 28 8f 63 ba 2c 7c 8e bb 98 fb 53 bb
       4.083963e-05 -0.0008680695 -0.0043482985 -0.0032346006
0003f0 60 6d c9 3a 88 64 19 ba 3a d8 d8 3a a2 21 55 bb
       0.0015367679 -0.0005851467 0.0016543933 -0.0032521267
